bottle_recognition/Utils/checkpoint.pth (torch_old, 137044 bytes, 16 tensors)

weight f4 [16, 1, 5, 5]
00000000: aacb f1bd 60b5 ccbd f463 653d 50c8 57bc
00000010: e0b3 23bc b4e3 21bd 4aa0 f6bd c1d4 443e
00000020: 32de f33d 1471 7ebd 8c45 5d3d a7ba 263e
00000030: 6a07 fdbd 9a94 c5bd 13b4 1cbe 0784 d5bd
00000040: 005e 49bb 5663 d03d 498e 383e 1f8e 2b3e
00000050: f6d2 eb3d e958 053e b479 50bd a77b 1c3e
00000060: a031 0dbd 2883 f6bc 582f 1c3d ec89 313d
00000070: 56b4 18be 4027 dfbb eae5 42be 5071 19be
00000080: 2c1c 683d 1b82 293e 807b 0d3d a2e2 0fbe
00000090: 3ace f53d 9d2e 1dbe 94d0 403d 68ba 113d
000000a0: 6583 403e a040 413c 0d01 03be 0125 233e
000000b0: 6cd8 1f3d 6aca 95bd 42cc 48be 9a99 b1bd
000000c0: 7741 163e 6f38 053e d0af 11bc a7a3 b4bd
000000d0: 408c e6bc 773d 243e f3d6 053e 58ef 97bc
000000e0: 8685 963d 00cd cdba 02f9 9e3d 9a22 873d
000000f0: 998d 0c3e 028a 27be a008 1d3c 689a 98bc
00000100: 740d 21bd 48ca 02be 9a81 873d 8e5b ed3d
00000110: 00fc 32bc 50cb b8bd 4c36 64bd 586f e4bc
00000120: 6888 e03c 6dc1 323e 80c3 66bb c060 afbb
00000130: 9017 fabd 334f 073e 5847 1f3d d9b8 393e
00000140: eaa7 a1bd a848 cf3c 041d 7f3d 991a 223e
00000150: 4665 9d3d 5244 e03d c02e 64bb c019 c4bd
00000160: 8047 413d 6e0b d53d 7a66 0abe 18b0 17bd
00000170: 0a23 13be 23f1 b3bd fdce b1bd 50bc 753c
00000180: e2fa cf3d f6da b13d 7bed 123e b215 f33d
00000190: 202f 40bc a2ef 1bbe 4039 903c 8242 03be
000001a0: 591d 173e 18e9 48be d0c7 84bd 50d0 2c3c
000001b0: 4312 f6bd 55db 11be 98e2 6ebd b3cc 30be
000001c0: 5438 393d 4ad8 12be 5e69 db3d 66cc 0bbe
000001d0: 2ea3 24be bc70 733d b26b 39be d7b8 493e
000001e0: e543 003e 409c e4bd dede c93d 019e 473e
000001f0: 68b7 08be 9bef 033e e4b8 5c3d e30f 31be
00000200: e8ad 38bd 50b6 c9bc 5c82 0cbe cc61 43bd
00000210: da02 ed3d 41cc 193e c0e6 c23c 2ad7 8bbd
00000220: 5356 43be b051 0abe 200c 23bc 80e9 0f3b
00000230: 7e59 8c3d 00d3 91bc 7dd2 39be 30d1 fcbd
00000240: 8c51 44bd e14b 0c3e 403d 433d d04f 1abc
00000250: 1a60 39be 8d69 27be 808e 443c 66bd 0dbe
00000260: 33e7 343e ef0f 4cbe e382 d4bd ca3a 42be
00000270: 3b6d 243e c90f 313e 02ff cd3d d0f7 f3bd
00000280: 5558 2ebe 28fa 40be 12a2 ce3d d888 fe3c
00000290: aa71 de3d bac3 903d 651f 2d3e 1f5d 4b3e
000002a0: 2691 f13d 4ca9 333d 5c2c 07be 475a 47be
000002b0: 7383 363e 24af 643d 618b 3f3e a02b c8bd
000002c0: 905a e2bc 4029 22be 328f 9b3d 2104 213e
000002d0: 910a 413e 9049 9a3c c09d 89bd d1d6 093e
000002e0: b642 bf3d 4677 ee3d 50f1 bbbd 704e ba3c
000002f0: 18bb 4fbd e82a 24bd 4628 91bd a88e 3d3d
00000300: 12a2 8d3d ece7 063d 80db a9bc e2b2 24be
00000310: 84d3 89bd d9f3 293e 86f8 0bbe 60d6 41be
00000320: d82a 48bd aa2b 893d aae7 17be 16b7 803d
00000330: 3de2 debd fd32 aabd ad96 f5bd 00a0 6eba
00000340: 20bd 23be 6ca5 2bbd 73bc bdbd 2553 2b3e
00000350: 0ab7 cbbd 6c3e 383d 909b f3bd c28f ca3d
00000360: 5855 35be 8778 b4bd 26ab c53d b985 223e
00000370: b2b6 983d 8076 fdbd c0aa bc3c 0052 a8bb
00000380: 11ea 183e c8c5 62bd 8255 0abe 66d1 fd3d
00000390: dece 943d b307 bfbd 4fe9 263e 82a2 e53d
000003a0: b37f 3cbe 05c0 083e b01d bfbd 8c9b 45bd
000003b0: a136 003e 58fa 803c 5980 423e f20d 32be
000003c0: aed6 b33d c083 e13c f8f5 58bd 941d 82bd
000003d0: 4e8f 9c3d cf13 143e ada3 46be 62c4 a73d
000003e0: 1d8d 10be 8066 133b 53aa e7bd d80a a13c
000003f0: 02c5 3abe 6280 ba3d 78bd 0fbe 8359 023e
-0.11806424 -0.09995532 0.056003526 -0.013170317 -0.009991616 -0.039523795 -0.120422915 0.19221784
0.11907615 -0.06211956 0.054021403 0.1628214 -0.1235493 -0.09647484 -0.15303068 -0.10425573
-0.0030726194 0.10175197 0.18023027 0.16753434 0.11514847 0.13022198 -0.050897315 0.15281545
-0.034471154 -0.030091837 0.038131088 0.043344423 -0.14912543 -0.006810099 -0.19033018 -0.14984632
0.05666749 0.16553538 0.034541607 -0.14051297 0.12002225 -0.15349813 0.047073916 0.03557816
0.18800123 0.011795193 -0.1279337 0.15932085 0.039024755 -0.07313998 -0.19609168 -0.08671875
0.1467341 0.13009809 -0.008892015 -0.08820277 -0.028143048 0.16039072 0.13070278 -0.018546745
0.07349686 -0.0015701354 0.07762338 0.065983966 0.1372589 -0.1636124 0.009584576 -0.018628314
-0.03931947 -0.12772477 0.066165164 0.11589728 -0.010924339 -0.09023154 -0.055715844 -0.027885124
0.027408794 0.17456599 -0.0035211742 -0.0053521097 -0.122115254 0.13213806 0.038886398 0.1813692
-0.07893355 0.0253032 0.06228353 0.15830459 0.07685332 0.10950531 -0.0034817904 -0.09575224
0.04718733 0.10402571 -0.13515654 -0.03703317 -0.14368835 -0.087862276 -0.08682058 0.0149985105
0.10155274 0.086843416 0.14348404 0.118693724 -0.0117299855 -0.15228131 0.017605424 -0.1281834
0.14757289 -0.19620168 -0.06483424 0.010547712 -0.12015202 -0.14243825 -0.058321565 -0.17265587
0.045219734 -0.1434032 0.107134566 -0.1365219 -0.16077873 0.059433684 -0.18107489 0.19699417
0.125259 -0.11162615 0.09856962 0.19493867 -0.13351214 0.12884371 0.053887263 -0.17291217
-0.045087725 -0.024623066 -0.13721603 -0.04770069 0.115728095 0.15019323 0.02379167 -0.06828149
-0.19075899 -0.13507724 -0.009951621 0.0021959245 0.06853007 -0.017800808 -0.18146701 -0.12344587
-0.04792933 0.1370082 0.047665834 -0.009418443 -0.18103066 -0.16348858 0.011996865 -0.13841781
0.1766632 -0.19927953 -0.10376527 -0.18967739 0.16057293 0.17291178 0.100584045 -0.11912501
-0.17025883 -0.18845427 0.10089506 0.031071112 0.108615234 0.07068582 0.16906507 0.19859742
0.11795263 0.043862626 -0.13200516 -0.19468032 0.17823581 0.05583109 0.18705513 -0.09773946
-0.027631074 -0.15836048 0.07595672 0.15724231 0.18851687 0.018833905 -0.067195415 0.13460852
0.09338896 0.11643843 -0.09176886 0.02274248 -0.050715536 -0.04007998 -0.0708776 0.046278626
0.06915678 0.03293602 -0.020734549 -0.16083863 -0.067297965 0.16596927 -0.13669023 -0.18929434
-0.048868984 0.066977814 -0.14834467 0.06284921 -0.10882995 -0.083105065 -0.1199163 -0.00091028214
-0.15990114 -0.041905805 -0.092644595 0.16730936 -0.09947021 0.044981405 -0.118949056 0.09890701
-0.17708337 -0.08812051 0.096517846 0.15871324 0.07456721 -0.12376118 0.023030639 -0.0051367283
0.14933039 -0.0553644 -0.13509181 0.12393455 0.07266019 -0.093276404 0.16299938 0.112126365
-0.18408088 0.133545 -0.09331834 -0.048244044 0.1252084 0.015744373 0.18994273 -0.17388132
0.08781181 0.027528644 -0.05296895 -0.06353298 0.07644521 0.14460681 -0.19398375 0.08191754
-0.1411633 0.0022491515 -0.11311784 0.019658491 -0.18239215 0.09106518 -0.1403712 0.12729459

bias f4 [16]
00000000: e750 b9bd 80dc 85bc c42b 6e3d 907d da3c
00000010: 4742 eabd 5055 06bc c023 883c c043 823c
00000020: b631 a63d f86c 64bd 032e 33be a6b0 86bd
00000030: f858 55bd 8397 41be d040 123c 9a07 8abd
-0.09048634 -0.016340494 0.058147207 0.026671201 -0.11438423 -0.008199051 0.01661861 0.015901446
0.0811495 -0.055767983 -0.17498021 -0.06576662 -0.0520868 -0.18905453 0.008926585 -0.06739731

weight f4 [32, 16, 5, 5]
00000000: fff8 123d e196 0e3d 7bab 0b3d e30f babc
00000010: c084 a53a 573b 3c3d aafb 36bd b652 9e3c
00000020: 83ba a5bc 7097 9cbc 4adc e13c 30f6 2ebb
00000030: 54fe 2dbc e24d f33c 8c80 7dbc 81bb 253d
00000040: a0f8 4e3b 1285 a63c 5bf1 333d ba5c 9bbc
00000050: be85 d43c c8a7 173c 486d 2fbd 7b7d 4c3d
00000060: 9f79 073d 40be a23a 6295 993c 4021 7bbc
00000070: 5092 c5bb 0064 c1ba c47e 653c 74c7 203c
00000080: 0d72 413d 393c 263d 621e e63c 73fa a8bc
00000090: 8a65 cebc 7e13 27bd 020f ba3c d9b1 203d
000000a0: acb3 5e3c 332e 223d 00f9 16bd e31c 47bd
000000b0: 5a97 973c 0382 c7bc 1516 243d c0a2 d1ba
000000c0: 18ea dc3b 8283 843c 162d 22bd ec1c 23bc
000000d0: 092b 083d d0eb 86bc b8ed 3f3c 4abf d7bc
000000e0: 94ef 093c edf6 cbbc b471 3bbc aa6f de3c
000000f0: c012 a9ba d277 f93c f23b ed3c af73 253d
00000100: f47a 5ebc f46c 283c c00e 423c ed4f efbc
00000110: bae9 d33c 0771 fcbc ee65 28bd 1bc3 3f3d
00000120: 80c5 e33b 8768 083d 9392 303d d3e1 2bbd
00000130: a327 25bd a89a 1c3c 80aa ee3b 5000 47bb
00000140: a764 f6bc 40d8 413c fefd d43c b064 0dbd
00000150: ada9 083d 60c0 3dbb bb74 2c3d 0044 0fba
00000160: 782d 463c b0e0 d5bc f4c9 6abc 88c0 0a3c
00000170: 688e ef3b b9b1 0e3d f3df f4bc 48e4 393c
00000180: 2ac0 d4bc 1414 1fbc eceb 04bd 71ca 1b3d
00000190: 3bc8 063d 5379 2fbd c0e3 1bbd 4edb 843c
000001a0: 3e0b 19bd 8d40 afbc f22c 49bd 6b6b 10bd
000001b0: 717f 173d d08c efbc 894e 043d 5c48 623c
000001c0: 1241 0bbd 8065 3ebc 50cc 49bb 8fad 093d
000001d0: ddc3 3fbd 2199 203d 6bf8 41bd 0e5e 15bd
000001e0: 66a2 06bd 7695 8c3c 6ac3 0ebd 922f 21bd
000001f0: f23d 973c fe6e 17bd 30d9 0fbd 45b2 353d
00000200: 7e3b e93c 05a0 13bd 0cfc 373c 34f6 0b3c
00000210: 329f dc3c f21f db3c 6dea 493d 24d2 533c
00000220: 8ce4 0b3c 5043 b3bb 9810 3d3c 8cdc 58bc
00000230: d97a 2a3d 8fc2 403d 50be c9bb 8075 3c3c
00000240: d5a0 1abd 9b6a 1dbd 834a 0ebd 2cf2 1cbc
00000250: 6ae9 e93c a02a 4cbb d866 27bd 1c7b 5a3c
00000260: 52d3 ef3c fb66 2cbd e3cc 3ebd 2a43 c0bc
00000270: 38f0 4a3c a4b2 753c f71f e1bc 2085 153c
00000280: 08dd 04bc b001 7bbb d150 3a3d 42c1 983c
00000290: 30c6 14bb d0ae fe3b 6a8f d2bc 2163 133d
000002a0: e0de 3abb 36e9 b93c 0aa0 8dbc 8477 783c
000002b0: f6c1 993c 32a3 cd3c d0e9 fabb ed65 c7bc
000002c0: 6495 743c b313 1d3d ec40 81bc 5806 b9bb
000002d0: 586f 9a3b 6a06 db3c 646a 693c 2cd6 55bc
000002e0: 04f4 753c a02f 92bc 44c9 88bc 9112 283d
000002f0: db42 25bd 4d45 38bd 003a 26bb d069 3bbd
00000300: a865 8abb 8232 ec3c b0cf dabb 808e 8d3b
00000310: d7ba 2a3d bef5 03bd 41ee 0e3d b384 0f3d
00000320: 6453 783c cd7a 003d db6a 14bd e05b 023c
00000330: 80b9 fcbb aa41 c9bc 80ee 443c 6b9d 48bd
00000340: 3dcd 283d 0d67 43bd e106 473d a40c 683c
00000350: 99c7 133d 7a2b e4bc 03a5 debc 4088 083c
00000360: dc66 0abd b29b 07bd 3307 49bd 7a4a eb3c
00000370: 2027 05bb 6181 143d 83d3 2a3d e440 653c
00000380: ce8f 943c 538c cdbc d424 6a3c e869 c6bb
00000390: bf7b 46bd a041 143c 003d 47bd c8e1 47bd
000003a0: e83a 10bd 6a37 a5bc c8dd 34bd 846a 573c
000003b0: 880f 32bd b4c1 113c 920e 0cbd da4c cd3c
000003c0: 22b4 f73c a08a 693b 655d 48bd aa91 e13c
000003d0: 9ade bc3c 0212 3ebd c41c 7a3c 2a1c 30bd
000003e0: c362 1ebd e80b 11bc 2d2c f6bc 3ae7 a0bc
000003f0: 970a 073d 00f5 74bc 94e0 2b3c 209d 2bbd
0.035881992 0.034811858 0.034099083 -0.022712654 0.0012628064 0.04595503 -0.0446736 0.019326549
-0.020230537 -0.01911518 0.027570862 -0.0026697032 -0.010619719 0.029700223 -0.0154725425 0.04046202
0.0031581298 0.020327125 0.043931346 -0.018965114 0.02594268 0.009256311 -0.042828828 0.049924355
0.03307497 0.0012416318 0.01874799 -0.015327752 -0.0060294047 -0.0014754534 0.014007274 0.009813178
0.047227908 0.040584777 0.02809066 -0.020627236 -0.025194902 -0.040790074 0.022712234 0.03923211
0.013592642 0.03959484 -0.03685856 -0.048611533 0.018504787 -0.024353987 0.04006012 -0.0015993938
0.0067417733 0.016175989 -0.03959378 -0.009955626 0.033244167 -0.016469866 0.011714391 -0.02633633
0.008418936 -0.024898017 -0.011440683 0.027152855 -0.0012899265 0.030452643 0.028959248 0.040393528
-0.013579119 0.010279883 0.011844337 -0.029212916 0.025868285 -0.030815614 -0.041112833 0.046816926
0.006951034 0.03330281 0.043108534 -0.04196341 -0.040321004 0.009558357 0.007283509 -0.0030365176
-0.030077292 0.011831343 0.02600002 -0.03451985 0.03336494 -0.0028953776 0.04210351 -0.000546515
0.0120958015 -0.026108116 -0.014330376 0.008468755 0.0073106773 0.03483746 -0.029891944 0.01134593
-0.025970537 -0.009709377 -0.032451555 0.03803486 0.0329058 -0.042840313 -0.038058996 0.016217854
-0.037364237 -0.021393085 -0.04911513 -0.03525869 0.036986772 -0.02924195 0.03230146 0.013811197
-0.033997603 -0.011620879 -0.0030791946 0.033612784 -0.04681765 0.039208535 -0.04735605 -0.03646665
-0.03286972 0.017161112 -0.03485433 -0.039352007 0.018462155 -0.036971085 -0.035119236 0.044359464
0.02847075 -0.03604128 0.011229526 0.008542586 0.026931379 0.026748631 0.04929583 0.012928519
0.008538377 -0.0054706708 0.011539601 -0.013236176 0.041621063 0.047060546 -0.00615672 0.011502624
-0.037751038 -0.038431745 -0.03473903 -0.009579223 0.028553683 -0.0031153336 -0.040869564 0.013335016
0.02927557 -0.042090397 -0.046582114 -0.023469526 0.012386374 0.0149962045 -0.027481062 0.009125978
-0.008109339 -0.0038300566 0.04548723 0.01864684 -0.0022701137 0.007772304 -0.02570315 0.03598321
-0.0028514192 0.022694211 -0.017288227 0.0151652135 0.018769246 0.025102232 -0.007657267 -0.024340594
0.014928196 0.038348865 -0.015778027 -0.005646508 0.0047129802 0.026736457 0.014246557 -0.013051551
0.015011791 -0.017844975 -0.016697533 0.04103333 -0.04034696 -0.044987965 -0.002536416 -0.045755208
-0.004223544 0.028832678 -0.0066775903 0.004319966 0.04168209 -0.03221678 0.034895185 0.03503866
0.015156601 0.031367112 -0.036234718 0.007956475 -0.007712543 -0.024567444 0.012019753 -0.04897825
0.041211355 -0.0477057 0.048590545 0.01416317 0.036079023 -0.027852762 -0.027178293 0.008333266
-0.0337895 -0.033107467 -0.04907913 0.028722037 -0.002031751 0.036256198 0.04170562 0.013992522
0.018134978 -0.025091326 0.014291007 -0.0060551055 -0.048457857 0.009048849 -0.04864216 -0.048799306
-0.035212427 -0.020168025 -0.04415682 0.013147954 -0.043471843 0.00889628 -0.034193583 0.02506106
0.030237261 0.0035635605 -0.048917193 0.027535278 0.023055363 -0.046403892 0.015265647 -0.04299561
-0.038668405 -0.008852936 -0.030050362 -0.019641507 0.032969084 -0.014950991 0.010490555 -0.041897893

bias f4 [32]
00000000: ffb4 3d3d c04f bb3b bb94 41bd a363 32bd
00000010: a880 3ebc e007 1cbc 8697 933c fcf9 02bd
00000020: 120f df3c e81e df3b 4750 32bd 4fec 4bbd
00000030: a199 193d 238e 3e3d e87e 83bb f070 ebbc
00000040: fa25 aebc 58ac 53bc bd32 27bd 14a8 3fbc
00000050: e7f3 4a3d 1828 8dbb f44f 733c 5e91 cc3c
00000060: 5018 7d3b 1710 0a3d 52c6 2bbd a0bc 18bc
00000070: 201d 6dbc 0051 94b9 93ae e2bc d81d 51bc
0.04631519 0.005716294 -0.04726098 -0.043552052 -0.011627354 -0.009523362 0.018016588 -0.031976685
0.027228866 0.0068091042 -0.04353359 -0.04978591 0.037500028 0.04652227 -0.004012931 -0.028740376
-0.021258343 -0.012919508 -0.040819872 -0.011697788 0.04954901 -0.004307758 0.014850605 0.02497166
0.0038619228 0.03370675 -0.04193718 -0.009322315 -0.014472276 -0.0002828911 -0.027671134 -0.012763463

weight f4 [25, 32]
00000000: 2512 bdbd ae94 f33d 19b9 1b3e ef61 b5bd
00000010: dc54 0ebd 0a5d 12be 58ce 1bbd 8adf 24be
00000020: 40ac 16bc 1b86 96bd deff a63d cedb dd3d
00000030: 30ac 5f3c 1045 ce3c 5849 0dbe 3e6a b43d
00000040: 194e 143e bf66 1fbe bd59 013e cf9b 9bbd
00000050: 40cb 4ebb 8ed8 863d 2863 653d 918c 15be
00000060: 5a06 b83d 9a93 b73d f05a 1fbe 4069 e03b
00000070: 148c 0dbd 5968 8ebd 06ce f43d ae7a d53d
00000080: 3b45 15be 8683 70bd dafa 1dbe 066d f73d
00000090: 5a2b 17be 7bfb aebd 5ba7 ebbd 5056 7bbc
000000a0: 6a4a 16be bb03 233e a0f2 1fbc 2e7e 13be
000000b0: e86e 23bd 9f76 b8bd 50b2 08bd 142c 943d
000000c0: 6a02 15be 76aa e83d df63 aebd 14ce 8d3d
000000d0: 1820 52bd ef88 0d3e 94e5 76bd 2004 933b
000000e0: 8c18 0c3d 1047 05be dcca 0fbe f88d fbbd
000000f0: 009d a73c bb2f 2f3e 5e11 b5bd a867 1abe
00000100: dd3a 1c3e 6f54 93bd 5c89 3c3d 907d 74bc
00000110: a0e2 3b3d d48f 793d 8051 4d3d 895c 32be
00000120: f493 80bd ac50 35bd 8fd7 043e 58a3 84bc
00000130: 8ac4 c4bd a8cd 713d d8b1 20bd d463 713d
00000140: 04f5 2fbe 509b c7bd c84a 403d e040 8d3c
00000150: 4c9a 2e3d 004e 6dbb 807b ffbb ac7d 453d
00000160: d53a 113e 0e5c bf3d 2092 f2bc 7225 d93d
00000170: 2f50 253e bee1 a73d d08c 21bc ec42 603d
00000180: 84b0 1fbd 28e3 95bc cc8d 013d 4451 583d
00000190: 01d4 09be 12ae 963d b580 0f3e 726d 0ebe
000001a0: f624 a03d e837 0b3d a029 c1bc a3d3 13be
000001b0: 83a0 263e 609d 4d3d c87f d6bd a01b 923b
000001c0: f064 f63c e082 bc3c cc95 17be 5870 d53c
000001d0: 39a8 303e 3841 adbd 70bd 3a3d e51b 283e
000001e0: 1e43 b93d 1581 263e 4799 193e 4455 3fbd
000001f0: 2d6a 263e f234 af3d 34b5 2e3d cc22 833d
00000200: 311b 143e 418d a2bd f763 293e 601c 953d
00000210: 207e fabb 7757 2ebe 570f 123e 5067 f4bc
00000220: f4ff 2ebe 406f 1cbb b397 2cbe 6242 62bd
00000230: d157 31be 82a8 c13d 5465 04bd 662d 00be
00000240: fe9b a03d 28d8 063d 16da 813d 769a 6bbd
00000250: 56a3 b0bd 2073 3ebc 9ed2 bf3d b208 9a3d
00000260: 669e a43d bc2a 53bd 30da 013d 48f3 2e3d
00000270: 2a5d ba3d 707b ae3c ca26 f63d 801c 0cbc
00000280: 308c 1ebe 7235 983d 6ae8 e93d 487e a9bc
00000290: 8b5e 143e ab78 1e3e f0dd fdbd efeb 1cbe
000002a0: 7851 813c 3b5b e9bd c2f4 cb3d 70ed b23c
000002b0: 526c d53d 4077 03bc 0c38 193d a9f3 283e
000002c0: 88f0 a13c 007a 093d 2014 fc3c d896 abbc
000002d0: 00a1 afbc 7c63 8c3d 5bc5 8ebd 5429 263d
000002e0: 7f22 113e 3747 163e fc2e dcbd 7383 173e
000002f0: fedb eb3d 23f5 0e3e 9f02 8abd f0a6 e53c
00000300: 66a7 82bd 801f 40bc 4043 853c d70c 1f3e
00000310: 0eed 33be 921f 983d 7457 fabd 6c4a 1fbe
00000320: f093 60bd 2025 303d bc61 5bbd 9e64 e33d
00000330: fc05 713d c564 0b3e 1052 88bd 0cac 30be
00000340: b928 01be 2049 b33b 0da2 01be 54f6 0cbe
00000350: a471 4abd 8528 2c3e 9050 f33c d6f2 8b3d
00000360: 705e 8b3c 0064 4c3a 004f 0fbc 9089 c6bc
00000370: 37d0 d8bd 5079 3e3d 270c 2e3e 35b3 ddbd
00000380: 77ba b3bd cceb 5a3d 52d4 0ebe a44c 193d
00000390: f10c 1c3e 025f 15be af22 213e c03f 953c
000003a0: c82f 15be c01b 5bbc bb0d e8bd 5f41 bcbd
000003b0: 9b6c 8dbd 66da 23be 6d02 2f3e 9cb7 27be
000003c0: c7ad 193e 2258 2dbe 4293 dd3d 0090 32bd
000003d0: f0a5 65bd 00d0 19b9 ea2e cc3d f118 10be
000003e0: 627e cd3d aed3 e63d 26d9 a6bd fcbd 7ebd
000003f0: 00c1 61bc 8591 143e 80f3 a63b 60a2 e43c
-0.092319764 0.11893593 0.15207328 -0.0885657 -0.034748897 -0.14293304 -0.03803858 -0.16100898
-0.009196341 -0.07349797 0.081542715 0.1083294 0.013651893 0.025179416 -0.1379751 0.088093266
0.14482917 -0.15566538 0.12631889 -0.075980775 -0.0031554252 0.06584273 0.056002766 -0.14604403
0.089855865 0.089637 -0.15562034 0.0068484843 -0.034557417 -0.069534965 0.11953358 0.1042379
-0.1457719 -0.05871918 -0.15427724 0.120813414 -0.14762631 -0.0854406 -0.1150653 -0.015340403
-0.14676824 0.15919392 -0.009762436 -0.14403602 -0.03990069 -0.09007 -0.033373177 0.0723497
-0.14551702 0.11360638 -0.08515143 0.06924072 -0.05130014 0.13821767 -0.060277537 0.0044865757
0.034203097 -0.1301539 -0.14042228 -0.12282938 0.020460606 0.17108051 -0.08841203 -0.15078604
0.1525683 -0.07193839 0.046029434 -0.014922515 0.045870423 0.06092818 0.050126553 -0.17418112
-0.0627822 -0.044266388 0.12972854 -0.01619117 -0.09607799 0.05903402 -0.039232105 0.058933094
-0.1718331 -0.097464204 0.046946317 0.017242849 0.042627618 -0.0036209822 -0.007796705 0.048215553
0.14182599 0.0934373 -0.029610693 0.10602845 0.16143869 0.08197354 -0.0098602325 0.05475132
-0.038986698 -0.018296793 0.03162937 0.052811876 -0.1345978 0.0735742 0.14013942 -0.13908938
0.0781955 0.033988863 -0.023579419 -0.14436202 0.16272168 0.050198913 -0.10473591 0.0044588596
0.030077428 0.023011625 -0.14803237 0.026054546 0.17251672 -0.08459705 0.045590818 0.16416891
0.09046005 0.16260178 0.14999877 -0.046712175 0.1625144 0.085550204 0.042653278 0.06403121
0.14463498 -0.07937098 0.1654204 0.07280803 -0.00764443 -0.17025553 0.14263664 -0.02983442
-0.17089826 -0.002387002 -0.16854744 -0.05523909 -0.17318656 0.094559684 -0.032323197 -0.12517318
0.07842253 0.032920986 0.06340425 -0.057520352 -0.08624904 -0.011624128 0.09366344 0.0752119
0.080380246 -0.051554427 0.03170222 0.04271248 0.09099801 0.021299094 0.12019117 -0.008551717
-0.15483165 0.07432069 0.114212826 -0.020690098 0.1448919 0.15475719 -0.12395847 -0.15324377
0.015785918 -0.11394354 0.09958793 0.021841735 0.10421051 -0.008024037 0.037406966 0.16499199
0.019768015 0.033563614 0.030771315 -0.020945951 -0.021439075 0.06854913 -0.06971236 0.040566757
0.14173315 0.14675604 -0.10751149 0.14796238 0.115165696 0.139607 -0.06738781 0.028033704
-0.06379585 -0.01172626 0.016267419 0.15532242 -0.17570898 0.074278966 -0.122237116 -0.15555733
-0.054828584 0.043004155 -0.053560004 0.111031756 0.058843598 0.1361266 -0.06656277 -0.1725313
-0.1261319 0.0054713637 -0.12659474 -0.13765842 -0.049424782 0.16812332 0.029701501 0.06833427
0.017012805 0.00077968836 -0.008746862 -0.024235517 -0.10586589 0.04650241 0.16996823 -0.10825197
-0.087758 0.05344753 -0.13948181 0.037426606 0.15239312 -0.14587024 0.15735887 0.018218875
-0.14569008 -0.013373315 -0.11330744 -0.09192156 -0.069054805 -0.16001281 0.17090769 -0.16378635
0.15007697 -0.16928151 0.10819103 -0.04359436 -0.056066453 -0.00014668703 0.09969886 -0.14072014
0.10033871 0.112708434 -0.081468865 -0.062192902 -0.013778925 0.14508636 0.0050949454 0.027909458

bias f4 [25]
00000000: 5cac f4bd a24c 9cbd d268 16be 4575 f8bd
00000010: ce79 df3d ab42 183e 180a bebd 9a69 c63d
00000020: 70c3 96bc 007c dbba 5dda 1c3e 0d89 203e
00000030: d07d 933d 0000 a6b6 26a8 10be d081 a13c
00000040: c73b 10be 92c1 863d f09d 763c 6e09 a23d
00000050: c0e7 a2bc 5028 b53c aa9e 873d c672 d53d
00000060: 70e6 18bc
-0.119469374 -0.07631804 -0.14688423 -0.121317424 0.10911904 0.14869182 -0.09279269 0.09688111
-0.018403739 -0.0016745329 0.15317674 0.1567728 0.07201731 -4.9471855e-06 -0.14126644 0.01971522
-0.14085303 0.06579889 0.015052304 0.07911955 -0.019885898 0.022113949 0.0662206 0.10422282
-0.009332284

weight f4 [10, 25]
00000000: faf5 80bd 005f 7a3c 6e19 1cbe 18b7 953c
00000010: 3071 2fbc 8044 53bc 12c3 a93d c2b6 14be
00000020: 079b 9fbd 6c17 153d 02de b83d 5732 e5bd
00000030: 3740 9fbd 393a 2c3e f2bf 823d 29c5 213e
00000040: 4c42 6b3d 7b41 3a3e e88a 37be 009b ad3c
00000050: 502e da3c 5410 433d acd4 77bd 8334 16be
00000060: 7790 fabd 6075 82bd a095 96bb 576b 3b3e
00000070: 8f10 45be 09b6 293e 09df 053e 9006 a7bd
00000080: 97cc 3b3e 10ea 3bbe a148 3e3e 4db3 163e
00000090: 32de eb3d f82d 463d 1748 4c3e 196b 203e
000000a0: 480c 423d e02c 25bc 0088 99bb 319c 403e
000000b0: f44d 23bd 02a8 47be f0f8 c1bc e06d 81bd
000000c0: 220a cf3d 8056 bebc ed2b f0bd 6d6e c0bd
000000d0: 8075 4bbe e60f b63d 5ed3 8a3d 7c99 7b3d
000000e0: 94db 07bd d263 903d 405c a1bd 7ce5 603d
000000f0: 0824 493d d7cd 99bd 5720 d9bd 6bc4 203e
00000100: a6e4 be3d 802e 393d 02bf cd3d c0fe d03b
00000110: 0a0c d63d a824 1abd 95b4 45be e523 17be
00000120: 0032 6bbb 6d19 053e 7234 c73d 7d1c 1ebe
00000130: 4cd2 393d a0e5 b7bd a65e c33d e0ad 13bc
00000140: 0530 15be 80ef 24bb 2a6c a03d fac1 d43d
00000150: b880 00be 69a7 473e 5463 7ebd 7475 66bd
00000160: 2830 04bd c076 babb 7bb9 213e 408b 01be
00000170: 757f 01be 53cd 0b3e 9542 2fbe 00ee e6bc
00000180: ad25 093e 3657 c33d c07d 2bbe 40ff cd3b
00000190: 05eb 1ebe d41f 05bd 604f 673c 8b6c 403e
000001a0: 78c0 1cbe dbb4 2d3e 4026 4cbe 07c0 38be
000001b0: ccfe 7a3d 64e5 593d 17a3 4cbe d864 9dbc
000001c0: 358c 04be 7125 083e 74dd 70bd b72f c3bd
000001d0: a8be c1bc e0ac 653c 36e5 e33d 00cd 043c
000001e0: 84d6 673d adff a8bd d0f2 ddbc ffc0 383e
000001f0: 5347 3dbe d8dc b5bc 403e eebb 6612 b43d
00000200: 3a73 15be 2420 01be 9a61 c63d 8414 6f3d
00000210: 9070 a4bd 11f2 263e 5b01 43be f85e 2d3d
00000220: 5e6d a73d c331 4c3e 6240 cd3d 363e da3d
00000230: 4074 2bbd 7a75 4bbe 7af9 ae3d 78bc 263d
00000240: 6899 0cbd d248 0cbe e1f2 213e 4efd dc3d
00000250: 4b46 453e 5b72 41be 3a9c b63d 7336 dfbd
00000260: 0f8b 3b3e 1285 a53d 8ae8 c9bd d150 153e
00000270: 4ac3 19be 5667 d63d 8128 453e 7bbb 2c3e
00000280: 1e34 e03d a94b 333e 5826 c9bc 25c4 1b3e
00000290: 001a 73bb eee3 f03d b724 f2bd 6eb0 b33d
000002a0: a825 03be 96fe e03d 5cfd 683d 7b9c 3dbe
000002b0: aa36 40be 60fc 163d 7a3b 4cbe 5992 003e
000002c0: 33d5 10be 4eaf 15be 6009 5a3c 5276 c63d
000002d0: 570e ccbd 5811 913c cd99 403e 4509 34be
000002e0: d036 afbc b82d 78bd 802e e5bd b0a1 64bc
000002f0: 1758 2a3e 8ace 9e3d 38ab 2abd 0dd9 d1bd
00000300: 523b 29be 3047 d73c 6f73 1e3e 808c d43c
00000310: 35bd 0ebe 6041 9cbd 7603 cf3d 8250 bd3d
00000320: 22e2 993d 3174 453e 4005 5bbb 405b f1bb
00000330: cb34 30be 8aea be3d 8ae9 0fbe a006 ebbd
00000340: e409 5c3d 806c a4bc a329 4cbe ca51 c3bd
00000350: 8ec4 ea3d 05b4 2fbe a80b 293d ed5b cebd
00000360: 1263 c33d 9f75 063e 00cc c8bc c2db ad3d
00000370: d869 123d 52cc 07be 4073 37bd a067 103c
00000380: 25a6 1dbe 980a a8bc c0e3 abbc 3059 e53c
00000390: 5e5a b53d 3d20 163e 5bde 3dbe 8a66 f4bd
000003a0: a45c 4e3d 671b 44be 0341 1ebe dda2 273e
000003b0: 305b 8e3c 16f6 be3d 7225 b33d b086 1ebe
000003c0: a021 083c ec33 1fbd 02d7 0bbe 7042 e8bd
000003d0: 581a 7ebd 68af e23c 73c2 403e 420f da3d
000003e0: e8a6 6dbd 88c3 103d
-0.06296916 0.015281439 -0.15244076 0.018275782 -0.010708138 -0.01289475 0.0828916 -0.14522842
-0.07793241 0.03639929 0.0902672 -0.11191242 -0.0777592 0.16819085 0.06384267 0.15797867
0.057436273 0.18189041 -0.17924082 0.021192074 0.026633412 0.047622994 -0.060505554 -0.14668469
-0.12234586 -0.06370044 -0.0045954734 0.18302666 -0.19244598 0.16573347 0.13073362 -0.081555486
0.18339764 -0.18351007 0.18582393 0.14716835 0.1151699 0.048383683 0.19949375 0.15665855
0.047374994 -0.0100815 -0.004685402 0.18809582 -0.039869264 -0.19497684 -0.023678273 -0.06319785
0.101093546 -0.023234606 -0.11727128 -0.09396062 -0.19869041 0.08889751 0.06778596 0.06142567
-0.03316839 0.07050289 -0.078789234 0.054906353 0.049106628 -0.07509964 -0.106018715 0.15699928
0.09320955 0.04521036 0.100461975 0.006378025 0.10451515 -0.037632614 -0.19307168 -0.14759786
-0.0035887957 0.1299798 0.097268 -0.15440555 0.04536657 -0.08979344 0.09539537 -0.009013623
-0.14569099 -0.0025167167 0.07833131 0.103885606 -0.12549102 0.19497456 -0.062106445 -0.056264356
-0.032272488 -0.0056904256 0.15793411 -0.12650776 -0.12646277 0.13652544 -0.17115243 -0.02818966
0.13393278 0.095381185 -0.16747189 0.0062865317 -0.1551934 -0.032501057 0.014118046 0.18791406
-0.15307796 0.16963522 -0.19936466 -0.18042003 0.06127815 0.05319728 -0.19984089 -0.019213125
-0.1294411 0.13295533 -0.058804944 -0.09530585 -0.023650482 0.014018267 0.11127703 0.008105516
0.056601062 -0.08251891 -0.027093321 0.18042372 -0.1848424 -0.022200033 -0.0072706044 0.08792572
-0.14594737 -0.12609917 0.09686585 0.058369175 -0.08029282 0.16303279 -0.19043486 0.042326897
0.08175157 0.19940858 0.10022046 0.10656397 -0.04185891 -0.19869033 0.08543678 0.04070708
-0.034325987 -0.13699654 0.15815307 0.107905015 0.19265096 -0.1889128 0.089165166 -0.10899057
0.18314765 0.08082022 -0.098588064 0.1458161 -0.15015903 0.104689285 0.19253732 0.16868393
0.109474406 0.17509331 -0.024554417 0.15211542 -0.0037094355 0.11762224 -0.11823409 0.08773886
-0.12807333 0.109860584 0.056882247 -0.18516724 -0.18770853 0.036861777 -0.19944564 0.12555827
-0.14143829 -0.14617655 0.013307899 0.096905366 -0.099636726 0.017708465 0.1880867 -0.17581661
-0.021388441 -0.060590476 -0.1119051 -0.013954565 0.16635166 0.07754238 -0.041667193 -0.10246477
-0.16526535 0.026279062 0.15473722 0.025945902 -0.13939364 -0.07629657 0.10108082 0.09243871
0.075138345 0.19282605 -0.0033419877 -0.007365614 -0.17207639 0.093220785 -0.14053932 -0.11475873
0.05372037 -0.020071268 -0.19937758 -0.095370844 0.11463271 -0.17158516 0.041270882 -0.10076127
0.095403805 0.13130806 -0.024511337 0.08489181 0.03574547 -0.13261536 -0.044787645 0.008813769
-0.1539541 -0.020512864 -0.020982623 0.02799663 0.08855127 0.14660735 -0.18541853 -0.1193362
0.050381318 -0.19151078 -0.15454488 0.16370721 0.017377466 0.09324281 0.087473765 -0.15481067
0.008308798 -0.038867876 -0.13656238 -0.11340797 -0.062036842 0.02767153 0.18824176 0.106474414
-0.058020502 0.035342723

bias f4 [10]
00000000: 82a9 9c3d 7b6b 3e3e 2463 94bd 909a bfbd
00000010: b743 0e3e 8e39 1fbe f0cd a6bc 7acf 8abd
00000020: aab6 aa3d 60e7 533c
0.076495185 0.18595688 -0.07245472 -0.09355652 0.13893019 -0.15549299 -0.02036187 -0.06777854
0.08335622 0.012933582

layer1.0.weight f4 [16, 1, 5, 5]
00000000: e466 bdbd 3c2b efbd f03b 1bbd 35d5 1b3e
00000010: 0209 8fbd 6158 993d ff72 30be 655e 96bc
00000020: 1698 e5bd d938 a33d a4e1 01be 966f 1b3e
00000030: dbc7 953d 2c8b 4cbe 1770 edbd f2ad 06be
00000040: 0a24 52be a49d 29bd 5820 0cbe 1b7b 39be
00000050: 08b0 fabd 06c9 c1bd e867 7d3d 1caf 1b3d
00000060: 50f9 633e 9e53 ddbd 9235 67bd f7bc 7e3d
00000070: 74e4 abbc c33c 943c 9583 203d 1d26 95bd
00000080: 17b0 af3d dc0a 483e 0911 49bd f91a f0bd
00000090: 9063 e03c 76be 753d f88f 453e 7afa 2a3e
000000a0: ff92 3fbe 7849 ccbd 49d0 f03d 1a0f 0a3d
000000b0: a781 7dbd 3ee9 30be 9658 31be 44d3 833d
000000c0: d58f fc3b d836 c8bd 263a 1e3d 64e1 efbd
000000d0: 987a bfbd f959 99bd 5ac5 51be 53f1 f73d
000000e0: 5970 303d 49aa f23d 037e 423d 1183 c73d
000000f0: dcd6 d83d d186 0ebe a6ac d3bd 9b40 f6bd
00000100: 3b15 543c 9686 5bbd ab88 c7bd 731a 38bd
00000110: b7f2 73bd d69d 0cbe b023 013d c23d f13d
00000120: 8389 17be 542b e4bb 03f5 0c3d 0a99 063e
00000130: 4cb0 0abe 4569 d83d 76b0 6f3d d80a ebbd
00000140: 6843 fc3d 0442 9e3d 2f69 32be 61e8 d6bd
00000150: 9bd9 b3bb 7f51 66bd d4df a63d 52d3 c53c
00000160: e032 c5bc 955c 28be 239a c2bb 180d 553c
00000170: 9387 fd3d b0ed 5e3e 3cb1 013e 4fca 01bd
00000180: 0705 a8bc 63b6 80bd 1998 13be 7b22 cc3c
00000190: c3c1 34be 3cf3 fcbd fbce 403d d600 d53d
000001a0: 5ebe 66bd 30a7 1abd bef9 2fbe 0538 67be
000001b0: 2960 babd 62f1 873d b8f7 083e e405 833d
000001c0: e8d2 c53d b5e6 b6bd f328 44bd 0b05 2f3d
000001d0: 874c f33d 33c0 1c3e 7ecb c73d b390 8ebd
000001e0: 3f6e d23a cea0 00be 52c3 853d 61c7 fdbd
000001f0: e704 d73d aa43 eb3d 7068 05be 161c 44be
00000200: 0ff2 ad3d 2d62 813d 4afe be3d a9ee 6c3e
00000210: 8f41 523e 0618 073e c383 8dbc 697a 5a3d
00000220: 95f9 213d fa4a 353e ef46 76bd 7333 f7bd
00000230: c267 51be 51e1 1ebe 27bf 33be 9dbe 3dbe
00000240: 4141 9e3c 88fd 8d3c 4e7d 51be 7b86 babc
00000250: 2855 123e 6ea0 2fbe ab56 4d3c 113b 113e
00000260: 9c94 d53d 1cb0 18be ea93 4b3c dcf2 9fbd
00000270: c257 bcbb 3a83 50bd ffc2 54be ffa3 4d3e
00000280: 70f0 b73d 15f7 c13d bcf3 f7bc 6cd8 fa3d
00000290: 95e0 20be 4ac5 39bd 2dfa 23bd c9e9 de3c
000002a0: 028c 32be be8c 30be d7c8 80bd 95c2 05bd
000002b0: fcc2 0fbd df08 1ebe 3a7f 26be 2637 84bd
000002c0: 6732 80be a0dd 41be da95 2cbe 106c 723d
000002d0: 60d8 fe3d 98b6 8cbc fa91 c2bd 596f 43bd
000002e0: 2cea a93c dd59 4f3e 9e3e 693d ef89 ad3d
000002f0: 1dd1 75bd fb85 243e 84ba 383e a13f 9a3c
00000300: a4dc dabc 3584 15be 2794 5dbe 3c03 03bd
00000310: 7c86 18bd e0f7 04be 0d43 b03d 81ad af3c
00000320: 0e41 513e e0bd 153d 33ce f53b 6e7b abbc
00000330: 9a8b 433e 8bbb 58bc 1c7a 8ebd 1615 36bd
00000340: 1481 87bc a6ae 89bc 0038 a0bc 4e13 cc3d
00000350: ec15 db3d 49a6 43be 4f47 2dbe 3ff9 8cbd
00000360: 559b 0ebe 8cb5 133d df19 1bbe 7d91 d53d
00000370: 5489 81bd 0699 e3bc cec3 34be ef71 cfbd
00000380: 1926 ea3c 81f6 a33d 549e 313e f44c 613d
00000390: 94de db3d 42d8 4b3d 813a 27be 0f3f 59be
000003a0: 673d 8a3c 47f8 24be f565 15be 5c64 11bc
000003b0: bd6f d73d d069 09bd 0991 e23c cd19 083e
000003c0: cd44 12be 188e dbbc 9f02 41be 8191 9cbd
000003d0: eb4c 0e3e 47e7 c63d e5f1 3cbd 310f 403d
000003e0: 0536 263e 2d76 3fbd 3bd5 e9bd 2dc5 1fbe
000003f0: bbfa c6bd c2eb 1f3e 9e28 89bd 159b 40bd
-0.092481405 -0.11678168 -0.037898958 0.15218051 -0.0698414 0.0748756 -0.17231368 -0.018355558
-0.11210649 0.07969827 -0.12683731 0.15179285 0.0731351 -0.19974965 -0.11593645 -0.13152292
-0.2052156 -0.041410103 -0.13684213 -0.18113367 -0.122406065 -0.0946217 0.06186667 0.038008794
0.22263074 -0.10806964 -0.056447573 0.06219193 -0.020982958 0.01809538 0.039187986 -0.0728266
0.08578508 0.19535393 -0.04908851 -0.117238946 0.027391225 0.05999609 0.19293201 0.16697112
-0.18708418 -0.099749506 0.11758477 0.03370581 -0.061891224 -0.17276475 -0.17318949 0.0643678
0.007707576 -0.097760856 0.038629673 -0.11712912 -0.09349555 -0.07487864 -0.2048544 0.12106576
0.043075893 0.118488856 0.047483455 0.09741796 0.10587856 -0.13918616 -0.103356645 -0.12024041
0.012944515 -0.053595148 -0.09742864 -0.0449471 -0.059557643 -0.13732085 0.031528175 0.117793575
-0.1479855 -0.006963173 0.03441335 0.13144317 -0.13543814 0.105669536 0.058517896 -0.11476678
0.12317544 0.07727435 -0.17422937 -0.104935415 -0.005488587 -0.056230064 0.081481606 0.024148617
-0.02407211 -0.16441567 -0.0059387847 0.01300361 0.12379374 0.21770358 0.12665266 -0.031687077
-0.02051021 -0.062847875 -0.1441349 0.024918785 -0.17652039 -0.12351081 0.047072392 0.1040055
-0.056333892 -0.0377571 -0.17185113 -0.22579964 -0.09100372 0.06637837 0.13375747 0.06397608
0.09659368 -0.089307226 -0.047890615 0.04272942 0.11879831 0.15307693 0.0975561 -0.06961193
0.0016054584 -0.12561342 0.06531395 -0.12391544 0.10498982 0.11487515 -0.13028121 -0.19151339
0.08493435 0.06317554 0.093258455 0.23137917 0.20532821 0.13192758 -0.017274743 0.053339396
0.03954466 0.17704383 -0.06012624 -0.1207036 -0.20449737 -0.15515639 -0.17553388 -0.18529744
0.019318225 0.017332807 -0.20457956 -0.022769203 0.14290297 -0.17151043 0.01253287 0.14182688
0.104287356 -0.1491093 0.012425402 -0.078099936 -0.0057477662 -0.050906397 -0.2077751 0.20082091
0.08981407 0.09470955 -0.030267589 0.122483104 -0.15710671 -0.045354165 -0.040033508 0.027211087
-0.17436221 -0.17241189 -0.06288307 -0.03265627 -0.03509806 -0.15433072 -0.1625947 -0.06455831
-0.25038454 -0.189322 -0.16854039 0.059185088 0.12443614 -0.017176911 -0.09500499 -0.04771361
0.020741545 0.20249124 0.056944482 0.08473574 -0.06001388 0.16066734 0.180399 0.018829169
-0.026716538 -0.14601214 -0.21638547 -0.031985506 -0.03723763 -0.12985182 0.08606539 0.021445038
0.20434973 0.036558032 0.0075013875 -0.02093288 0.19096223 -0.0132283075 -0.06956884 -0.044453703
-0.016541041 -0.016806912 -0.019557953 0.099646196 0.10697541 -0.19106402 -0.16921733 -0.068834774
-0.13926442 0.03606181 -0.15146588 0.1042814 -0.063250214 -0.027782928 -0.17652819 -0.10129153
0.02858262 0.08006001 0.17345554 0.05500503 0.10735813 0.049766786 -0.16330911 -0.21215461
0.016874982 -0.16110335 -0.14589675 -0.008874025 0.10519359 -0.033548176 0.027657049 0.13291092
-0.14284058 -0.026801154 -0.18848656 -0.0764494 0.1389653 0.097120814 -0.046129126 0.046889488
0.16231544 -0.04674356 -0.114176236 -0.1560256 -0.09715792 0.15617278 -0.066972 -0.047022898

layer1.0.bias f4 [16]
00000000: 96af 60bd 91e5 26bd febd 29bd 91f0 6f3d
00000010: 9fdb 433e 693d d33d b3bc 29be 1351 d9bd
00000020: 27ed 46bd 12f3 8b3d 2845 073e 6616 a63d
00000030: 4fcc 473d 5631 a8bc 3c45 d63d 94d7 52bd
-0.05485495 -0.040746275 -0.041440956 0.05857903 0.19126748 0.103144474 -0.1657589 -0.10611167
-0.04856601 0.06833471 0.13209975 0.08109741 0.04877883 -0.020531338 0.10462424 -0.051475123

layer2.0.weight f4 [32, 16, 5, 5]
00000000: 8251 e93c 8e6a 64bd c025 253d 6078 b4bb
00000010: 14df 50bc 683d b63c eed1 063d aca2 4c3b
00000020: 0cdf e2bc be79 c8bc 45bc 2bbc dbe1 31bc
00000030: 087f e8bc 5ef7 933c e025 b33c a6ba 14bd
00000040: f3ac 49bd cdc0 93bb af37 af3c 13f6 e83c
00000050: be4a 49bd 7275 523c b622 e6bc 1ee7 92bc
00000060: 8b39 3b3d 57e5 f1bc 8347 06bd ae75 7c3c
00000070: a2ff 75bc 07dc 3c3d b190 ecbc 20b1 18bd
00000080: e28d f2bc 2cc9 63bc 3484 f7bc 0641 853b
00000090: a489 37bd f518 3abd e234 003d 69ff 1c3c
000000a0: 74b2 2dbd a132 5fbd 7c6d 923c 40f7 f93c
000000b0: 575a 5c38 02a1 42bd fdb1 3abd 73a3 9abb
000000c0: 5f45 133d b1d7 69bc 8e9d 2d3d ba4f 97bb
000000d0: 6c5e 1abd 7fda 83bc dc51 af3b 719b d13c
000000e0: 05c6 f43c 2088 bd3a e771 8e3c 4b24 853c
000000f0: e805 29bb 54e8 51bd d43a 5c3c fbdb 61bd
00000100: cd87 cf3b c152 bbbb ce37 b03b 5ee2 a4bc
00000110: 44e6 9e3b a2b0 3d3d 4d48 24bd dd2d 17bd
00000120: d941 45bd d982 de3b 6ece 283d 7442 01bb
00000130: ab29 1d3d 8a53 7cbd 3478 7d3c 2210 1bbd
00000140: b48d 193c e88f de3b f01a 8dbc d74f 4bbd
00000150: 3474 68bb 24dc 2a3d 50ff 1d3c af9c b5bd
00000160: 0abc 59bd c498 ebbc 9b6a 153d 54db 0bbd
00000170: caac a5bc ad9d c4bc fb21 3fbd 6332 39bd
00000180: 4cb3 9f3c 189f 1fbd b595 3fbd 2038 903b
00000190: 7a48 75bb dde8 973c 799b b2bc 8420 4ebd
000001a0: 3f7d 483d 5030 fc3b 8a87 7fbd 8b15 12bd
000001b0: fda4 3abd 2e75 89bb 268e 56bc 60bf 1e3a
000001c0: 83b8 7abd 0834 54bd c480 b1bc 9692 0a3d
000001d0: b264 71bd 8e56 a5bd 285f d6bc c72b 1cbd
000001e0: 66b2 f63c 4645 af3c 4c64 74bc b95c 423d
000001f0: 5a08 bf3c 4f44 5abb 8427 2dbd 3667 2c3c
00000200: 8482 463c a727 0b3d dedc 15bc dbd1 dabc
00000210: 856c f8bc 544a 2cbd a204 72bc 48fc 2fbc
00000220: fcbb 66bc d9ed c7bd 3c88 8cbd 6ca6 943c
00000230: fc59 78bb d93d 95bd 54b9 893a fa3d 68bd
00000240: a859 31bd 5ede 9cbb 2f35 293d 4bba bf3c
00000250: 0dc0 123d 71a7 433c fd34 04bd aa4c e4bc
00000260: 6d7d 3ebd a8d2 4abd 8fed 33bd 19c9 1ebd
00000270: d870 b2ba d87c bdbb ce86 35bd 1f7a 4bbb
00000280: 8cc2 df3c 1830 dc3b 340d 913c 3097 923c
00000290: 7607 f6ba bdb1 babc 5832 2bbb 7a70 30bd
000002a0: 1e04 303c 84f1 a9bc 52f2 413d ae69 c33c
000002b0: 11fc 88bc 2a13 e93c 6460 17bd 78c4 ea3c
000002c0: e4c2 1bbc fe00 80bb 7872 cabb 0183 443d
000002d0: 039c 56bd 28a5 c53c b8b0 913b 5001 2ebd
000002e0: 497f ae3c 6d1b 0abd 1bcf 21bd 58bc 123c
000002f0: e221 85bc dec3 b83c 5ab9 0dbc a8a5 d53c
00000300: 40da 6f3c 8e67 9a3c 38b7 01bd f032 82bc
00000310: 8028 313d a221 c13b d828 96bc 1506 73bc
00000320: e86f 2ebc a784 11bd 4023 a1bb 1080 a6bc
00000330: e0b9 30bb b480 f23b bfcc 5bbc 46a8 313c
00000340: 80a9 643c 29dc ef3a 8b58 1e3d d050 7abd
00000350: d127 d43c e0de 96bc 470a 443d 3a35 203c
00000360: 4007 07ba b8f9 33bd 9cab 82bc 8cc1 1dbb
00000370: 785e 2dbc 3616 45bb 2fac 23bd 71ee a6bc
00000380: 8e93 053d fa2b 3b3d 7328 55bd 209f c53c
00000390: 57a9 60bd f316 19bd 06ef 4abd 78bd d53b
000003a0: 4ea2 c4bc ed63 fbbc 2609 d2bb ae02 133d
000003b0: 6d9a 24bd cae3 46bd 75bb 10bc 74a5 283d
000003c0: def4 cbbc 10bc 243c 9cc0 22bc 100b 34bd
000003d0: 2556 983c 3f04 09bd 0b7f 26bd e1a0 cdbc
000003e0: 9cbf 2ebc fa1a 173d bdd2 2f3d 9b97 e23b
000003f0: f932 1e3d f16f 22bd f7b4 2abc c563 813c
0.028481249 -0.05576568 0.040319204 -0.005507514 -0.0127484985 0.022246078 0.03291505 0.003122489
-0.027694248 -0.024472114 -0.010481899 -0.010857071 -0.028380886 0.01806229 0.021868646 -0.036310814
-0.049237203 -0.0045090676 0.021388857 0.02843765 -0.049143545 0.012845384 -0.028092723 -0.01793247
0.045709174 -0.029528303 -0.032783043 0.015408916 -0.015014561 0.046108272 -0.028877588 -0.037278295
-0.02960867 -0.013902944 -0.030214407 0.0040665893 -0.044809 -0.045433957 0.031300433 0.009582379
-0.042406514 -0.054491643 0.017874472 0.030513406 5.2536223e-05 -0.04751683 -0.0455799 -0.0047191917
0.03595483 -0.014272616 0.042386584 -0.0046176584 -0.037687704 -0.016095398 0.0053503346 0.025586816
0.02987958 0.0014460124 0.017388297 0.016252657 -0.0025790874 -0.051246956 0.01344176 -0.05514143
0.0063333274 -0.005716652 0.005377746 -0.020127472 0.004849227 0.04631103 -0.040108014 -0.036908973
-0.0481585 0.0067905006 0.04121249 -0.0019723447 0.038369816 -0.061603107 0.015470553 -0.037857182
0.009372164 0.0067920573 -0.017224759 -0.049636688 -0.0035469653 0.04171385 0.009643391 -0.08867776
-0.053157844 -0.028759368 0.03647862 -0.034144714 -0.020223994 -0.024000967 -0.046663266 -0.04521407
0.019494675 -0.038970083 -0.04677363 0.004401222 -0.0037427233 0.018543655 -0.02180265 -0.050323978
0.04894757 0.007696189 -0.06238512 -0.035665076 -0.0455675 -0.004194877 -0.013095414 0.0006055739
-0.06121112 -0.051807433 -0.021667846 0.0338312 -0.05893392 -0.080731496 -0.02616842 -0.038127687
0.030114364 0.021395337 -0.014916491 0.04745171 0.023319412 -0.0033304875 -0.042274013 0.010522654
0.012116078 0.033973362 -0.009146897 -0.026711395 -0.030325184 -0.042063072 -0.014771612 -0.010741301
-0.014082905 -0.09762163 -0.06861922 0.018145762 -0.0037895432 -0.07287187 0.0010507503 -0.05669973
-0.043298393 -0.0047872504 0.041310485 0.023404261 0.035827685 0.011941777 -0.032277096 -0.027868588
-0.046506334 -0.049517304 -0.043927725 -0.038766 -0.0013613952 -0.005782705 -0.044318013 -0.0031048132
0.027314447 0.0067196004 0.017706491 0.017894357 -0.0018770534 -0.02278983 -0.0026122537 -0.043076016
0.010743169 -0.020745046 0.047350235 0.023854103 -0.016721757 0.028451521 -0.03695716 0.028658137
-0.009506915 -0.0039063683 -0.0061781965 0.047976498 -0.052394878 0.024126604 0.0044461153 -0.04248172
0.021300929 -0.03371756 -0.03950415 0.008956037 -0.016251508 0.022554334 -0.008650148 0.026079968
0.014639437 0.018848207 -0.03166887 -0.01589343 0.043251514 0.005893902 -0.018330023 -0.014832993
-0.010646798 -0.035526898 -0.004917532 -0.020324737 -0.002696626 0.0074005965 -0.0134155145 0.010843342
0.013956428 0.0018299866 0.03865866 -0.061112225 0.025897892 -0.018416822 0.047861364 0.009778315
-0.00051509216 -0.043939322 -0.01595097 -0.0024071662 -0.010581605 -0.0030073053 -0.03995913 -0.02037737
0.032611422 0.045696236 -0.05204053 0.024123728 -0.054848995 -0.0373754 -0.049544357 0.0065228306
-0.024003174 -0.030687297 -0.006409782 0.035891227 -0.040186334 -0.04855708 -0.008833756 0.041173413
-0.024897035 0.010054603 -0.009933617 -0.043955863 0.018595764 -0.033451315 -0.0406485 -0.025101127
-0.0106658 0.03689096 0.042925585 0.0069150454 0.03862283 -0.039657537 -0.010419122 0.015794644

layer2.0.bias f4 [32]
00000000: fae1 813c 88aa 263c 6f6a 153c 7e07 ffbb
00000010: 68b4 58bc 0839 053d 4acc 41bc 2356 773c
00000020: 498b f0bc eea3 16bd 313b 27bd 416c 383d
00000030: 94dc b0bc eead e7bc b7ed 083c 41b3 303d
00000040: 65ff dc3b a3c5 933c c4fb 623c eed6 253d
00000050: 78a4 9d3c c864 23bd c723 bc39 47a9 2d3d
00000060: 7a90 3ebd 022f 7dbc 0202 42bd 1183 35bd
00000070: 4d01 9b3c 7976 313d defc 393d e7cb 95bc
0.015854824 0.010172494 0.009119614 -0.0077828756 -0.013226606 0.032525092 -0.011828491 0.01509622
-0.029363291 -0.03677743 -0.040827934 0.045025114 -0.021589555 -0.028281178 0.008357457 0.0431397
0.0067443126 0.018038576 0.013853971 0.040488176 0.019243464 -0.039891034 0.0003588481 0.042397764
-0.046524502 -0.015453102 -0.047365196 -0.044314448 0.018921519 0.043325875 0.04540717 -0.018285705

fc1.weight f4 [25, 32]
00000000: 5f7d 0b3e 0aaa 36be e66b 1dbe 312f 0b3e
00000010: 7e51 113d 0118 873c fefe 1fbe 0dc8 01bc
00000020: 23a9 683d a3eb 9bbd 1a46 e23d ade1 adbd
00000030: 78cf 3cbe 729a 093e 43c3 26be 789e cfbd
00000040: 7490 c9bc f15d 0d3e c8db ddbc f82a c4bd
00000050: b2d2 b33d 983a 11bd eab6 fc3d 2947 233e
00000060: 7de2 953d b07b 983c 1e2c 073e 8b47 2dbe
00000070: 14d1 37be 80f3 1b3d 8a70 eebd 1498 1bbe
00000080: 481c 60bd 669a 25be 925f ea3c 470e fbbd
00000090: e867 6fbd 2317 1f3d c6a4 1ebe 3d82 ac3d
000000a0: be23 14be 8066 e83d 48af e7bd 12e5 f4bd
000000b0: 8086 1fbd 2209 e13d d1b1 d5bd a3c7 34be
000000c0: 05e4 bdbd 0fce 893d 0040 26be 029b 98bd
000000d0: 9f01 3ebe a766 f5bc 5a15 583d 4082 7b3b
000000e0: 0092 96bd d006 2abd 2b12 183e c80d 593c
000000f0: 6717 aabd 506e c8bb a0e3 9e3b bdd8 cc3d
00000100: 1b8a 0d3e 6fe6 d63b e490 c03d 23c5 09be
00000110: af9c 1dbe ec02 82bc e758 c23c 886b c63c
00000120: 7bc3 163d 446f 2d3e 0194 2ebe b127 34be
00000130: 2253 3bbd 5f74 0bbe ace7 893d 2de9 333d
00000140: 30d5 213c aff8 073d b946 68bc b348 3dbe
00000150: 5370 9e3d 486c 8e3d fab8 1c3e 8c76 0a3d
00000160: 4f8a a13c e83e 713c 53bd b4bc 274c 883d
00000170: 676c 2d3c 4e23 2e3e e390 aabd dfb6 b5bd
00000180: d8d6 173e cb58 f83d 6f41 b33c 310c 153e
00000190: 1436 9abb 0178 553e c8d4 133e b4e1 423d
000001a0: c5c1 dd3d 5539 babd 9d70 16be 35f6 063e
000001b0: 951a 2d3e 2cf0 143e 2213 973d 0ded 9e3d
000001c0: 0274 b6bc a21b 2c3e 015d 333b ae69 61bd
000001d0: a368 793d f542 6e3d a8cb 8bbd 10c2 b23b
000001e0: 39e2 573d b040 fc3d 02a0 17be 49a0 1dbe
000001f0: 5b4c abbd 8a66 b63d 4e96 26bc 6550 87be
00000200: ece8 f0bd d3b5 323e 9817 ad3d b59d ee3d
00000210: 6ecd 51be b015 23be 5e97 983c dca3 3d3d
00000220: 2314 2c3e 983b 34be 8168 273e 2872 d03c
00000230: 0ef2 033d 7ba4 6dbe c2b7 68bc f658 33be
00000240: 0b82 b8bd 5056 8d3d e078 2e3e 7dab 59be
00000250: 92ba 11b6 b5f6 0a3e a766 16bd 72a3 d3bc
00000260: f1de c0bc d68e c1bc 7f9f 80bc 12a3 493e
00000270: dff1 eebd c151 3ebe 0eed 0b3e 6d68 a7bd
00000280: e9af 9fbd ea3f f3bd 2a39 de3d 30af 223c
00000290: 9d02 603d b9e7 edbd c318 a3bd bfd8 fbbd
000002a0: 980f 293d f60d 25be bda0 2bbe 1ead d33d
000002b0: f3cf e8bd 768a ff3d f8b1 10be 0038 8fbc
000002c0: e5c3 9f3d 9e6b de3d 1bac b6bd cc24 ecbd
000002d0: 9ea4 6d3d d339 b8bd 9594 d1bd c7ec c23d
000002e0: d4a2 333d 0db0 20be 8f6b 11bc dcad 843d
000002f0: 6cf2 2ebe a13d adbd f5c7 21be 5998 33be
00000300: 1f69 9cbd fa61 423e b95e 4c3b f779 32bc
00000310: b6aa db3c 224a b63d d772 9d3c cb58 f53d
00000320: 9316 79bd e02b 423e 0ff3 843d 722f 81bd
00000330: 303b b53c 156a 213e 7f49 01be 70bc 8b3e
00000340: 23f1 97bb e199 6bbc f895 1ebe eeec aa3d
00000350: e42b c73d c1ed 823d d8ef b6bd 63b9 dbbd
00000360: d380 83bd 81b1 543d 1dbd 05be a2a9 8c3d
00000370: e2e5 f5bd 126b b0bc 10fa e63b 547c 61bd
00000380: 7ee5 2ebe dd9a 693d 7144 21bd eb03 333b
00000390: e2de 063e a801 09bd 85d8 17be 51e9 bbbd
000003a0: 183e 093e 8fab a23d 1e37 26be 6b16 bdbd
000003b0: 43e3 dbbd 0fd1 ab3d 1b0b 0a3e 8ec9 b73d
000003c0: 933d 303d 8548 00bd 0b13 f5bd 5807 973d
000003d0: 9244 2abe c228 21be 19fe f63d ada2 31bd
000003e0: f8dc 10be 5369 653d fd7a 3d3d ee0e 17bd
000003f0: b8a2 34bd de06 ff3d 4009 bd3d fc1d db3d
0.13622044 -0.17838302 -0.15373191 0.13592221 0.035478108 0.016490938 -0.15624616 -0.007921231
0.056801926 -0.076133035 0.11048527 -0.0849031 -0.18438518 0.13437822 -0.16285424 -0.101376474
-0.024605013 0.13805367 -0.027082339 -0.09578508 0.08780421 -0.03545627 0.123395756 0.15945114
0.0731859 0.018613666 0.13200423 -0.16921823 -0.1795085 0.038074017 -0.11642559 -0.15194732
-0.05471447 -0.1617218 0.028610025 -0.122585826 -0.058448702 0.038840424 -0.15492544 0.084232785
-0.1446676 0.11347675 -0.11312729 -0.11957754 -0.03894663 0.1098807 -0.104343064 -0.1765428
-0.09272007 0.06728756 -0.16235352 -0.074514404 -0.18555306 -0.029956175 0.052754737 0.0038377196
-0.07352066 -0.041510403 0.1485068 0.013247915 -0.08305245 -0.006116666 0.0048489124 0.10002277
0.13822214 0.0065582315 0.09402636 -0.13454108 -0.15391801 -0.015870534 0.023724033 0.024221197
0.03680752 0.16936976 -0.17048647 -0.17593266 -0.04573358 -0.13618611 0.06733641 0.043923546
0.009877488 0.033196148 -0.014177018 -0.18484764 0.07736268 0.06954247 0.15304938 0.03380446
0.019719271 0.014724471 -0.022062933 0.0665515 0.010584927 0.17005655 -0.08328416 -0.088727705
0.1482805 0.12126311 0.021881787 0.14555432 -0.0047061536 0.20846559 0.14436638 0.04757853
0.10827974 -0.090929665 -0.14691396 0.13179858 0.16904671 0.14544743 0.07376696 0.077600576
-0.022272114 0.16807416 0.0027368667 -0.055032425 0.060890805 0.058169324 -0.06825954 0.005455263
0.052705977 0.12317026 -0.14807132 -0.15393175 -0.08364173 0.089062765 -0.010167671 -0.26428524
-0.11763176 0.17452173 0.08451766 0.11651174 -0.20488521 -0.15926242 0.018626865 0.046298847
0.16804557 -0.17600858 0.16348459 0.025445059 0.032213263 -0.23207276 -0.0142039675 -0.17514405
-0.09009179 0.069012284 0.17038298 -0.21256824 -2.1715282e-06 0.13570674 -0.03671899 -0.025834773
-0.023543807 -0.02362768 -0.015701054 0.19691113 -0.11667227 -0.18585874 0.13664648 -0.081742145
-0.07797224 -0.11877425 0.10850747 0.009929463 0.054689992 -0.11616463 -0.07963707 -0.122972004
0.041274637 -0.16118607 -0.16760536 0.10335754 -0.11367788 0.12477581 -0.1413039 -0.017482758
0.07801036 0.1086037 -0.08919545 -0.11530456 0.05801832 -0.08995404 -0.10233418 0.09517818
0.043856457 -0.15692158 -0.008875742 0.064784735 -0.17084664 -0.084590204 -0.15798934 -0.17538585
-0.07637238 0.18982688 0.0031184389 -0.0108933365 0.0268148 0.089008585 0.019219799 0.119798265
-0.060812544 0.1896205 0.06491672 -0.063078776 0.02212295 0.15763123 -0.12625693 0.27292204
-0.0046369 -0.014379949 -0.15486896 0.08345972 0.09725168 0.06393004 -0.08932465 -0.10728719
-0.06421056 0.051927093 -0.13060422 0.068682924 -0.12006737 -0.02153543 0.0070488527 -0.05505021
-0.17079732 0.057032455 -0.03937191 0.0027315568 0.1317096 -0.033448845 -0.1482869 -0.09175361
0.13402593 0.079428785 -0.16231963 -0.092327915 -0.10736706 0.08389484 0.13480799 0.089739904
0.04302747 -0.03131916 -0.11966523 0.073744476 -0.1662772 -0.15738204 0.12060184 -0.04336803
-0.14146793 0.056008648 0.04625987 -0.036879472 -0.044100493 0.12452482 0.0923028 0.106990784

fc1.bias f4 [25]
00000000: 9c0e 85bd d0d9 223e a8ed 233e b174 da3d
00000010: 075a 993d 4386 10be a450 c43d e77f b1bc
00000020: 7a00 0b3e 4f5e 14be 9cb4 d7bb 7418 233e
00000030: f361 0f3d ccb2 6a3d 7f08 8a39 335c abbd
00000040: d670 b23d 3507 0f3e ee6e c63d 56c1 f5bd
00000050: cde6 f4bd 8733 2e3e 583b bebc bb04 963d
00000060: 989b 4d3d
-0.06496927 0.15903401 0.16008627 0.10666788 0.074878745 -0.14113717 0.095856935 -0.021667434
0.135744 -0.14489101 -0.0065828096 0.15927297 0.03500552 0.05729942 0.0002632774 -0.08367195
0.08712928 0.13967593 0.09689127 -0.119997665 -0.11958084 0.17011844 -0.023221657 0.07325121
0.050197214
