bottle_recognition/Utils/checkpoint.pth (torch_old, 137044 bytes, 16 tensors)

weight f4 [16, 1, 5, 5]
000000 35 ae 01 3e 1c 09 7c 3d 45 69 0a 3e 8a df 1a be
       0.12664111 0.061532125 0.1351672 -0.15124336
000010 30 7a d2 bd a2 78 fb 3d 6f 59 16 3e d9 96 30 3e
       -0.10277212 0.12278868 0.14682554 0.17245044
000020 d3 83 3f be 2c fa 0d bd 25 26 11 3e a7 3e 9d bd
       -0.1870263 -0.03466241 0.14174707 -0.076779656
000030 dd 73 9a bd 20 e7 09 bc 22 10 c8 3d 70 7d 80 bd
       -0.075416304 -0.008416921 0.09768702 -0.06273925
000040 30 1f 67 3c e0 b2 3b bd 0a b4 a9 3d 74 05 4f 3d
       0.014106557 -0.045824885 0.08286293 0.05054231
000050 ec 54 61 3d 88 e8 0f bd 26 38 e8 3d f4 44 2a bd
       0.05501263 -0.03513387 0.113388345 -0.041569665
000060 a6 6d df 3d 0d 48 ee bd ac a8 2e 3d 7e 71 a9 3d
       0.10909586 -0.11634836 0.042641327 0.082736
000070 db 77 4a 3e 85 cc 1f be ec 15 78 3d d5 ef 27 be
       0.19772284 -0.15605362 0.06056778 -0.16400082
000080 3a 71 a2 bd 18 94 ac bc ac e8 2e 3d c8 83 4c bd
       -0.079317525 -0.02106671 0.042702362 -0.049930364
000090 b8 a1 1f bd 66 a1 28 be 96 3c 89 bd 6a bb 04 be
       -0.038972586 -0.16467819 -0.06701009 -0.12962118
0000a0 92 bc e8 3d 00 3e fb 3b c7 05 3f be 49 32 1f 3e
       0.11364092 0.007667303 -0.18654548 0.15546526
0000b0 c2 36 a7 3d 0a fc 90 bd 60 a0 a4 bb 05 b1 42 be
       0.08164741 -0.07079323 -0.005024001 -0.1901284
0000c0 90 54 d9 3c 02 e9 ac 3d d5 cc 36 be 3c 47 64 3d
       0.02652958 0.0844288 -0.17851575 0.055731997
0000d0 00 3d 2e bd 92 c5 82 3d b4 09 08 bd d0 3e 4c be
       -0.042538643 0.0638534 -0.03321238 -0.19945836
0000e0 e1 1e 2f 3e 8d 60 36 3e 5e 00 23 be 68 26 39 3d
       0.17101623 0.17810269 -0.15918109 0.045202643
0000f0 68 8f 1d bd f2 6d 9f 3d 10 d7 aa bd 87 93 b0 bd
       -0.03846684 0.07784642 -0.08341801 -0.086218886
000100 d8 52 41 be c6 f2 f1 3d bd 2e a1 bd c5 12 31 be
       -0.18879259 0.118138835 -0.07870243 -0.17292316
000110 00 d1 20 be ea 75 fa 3d e7 4c bb bd b0 0b 4c be
       -0.15704727 0.122295216 -0.09145527 -0.19926333
000120 ae fb de 3d ff 74 0e 3e 3d d6 3c be ac 85 23 3d
       0.10887848 0.13911818 -0.184411 0.0399224
000130 e6 fb e7 3d c8 24 54 bd 40 61 f0 3b 6c 1e 5d 3d
       0.11327343 -0.05179289 0.007335812 0.05398409
000140 84 f6 89 bd 29 dc 12 3e 0c 90 02 bd 2c 8f 04 bd
       -0.06736472 0.14341797 -0.031875655 -0.0323631
000150 0e 97 f1 3d 00 08 77 bb 00 fc a5 bc 8a a6 40 be
       0.117963895 -0.0037693977 -0.020261765 -0.1881353
000160 8f 98 40 be fd ad dc bd 58 bf 26 be 26 f3 98 bd
       -0.18808196 -0.10775373 -0.1628393 -0.07468252
000170 25 db 23 be c1 2f 01 3e 58 3e d3 bc 9d 74 18 3e
       -0.16001566 0.12615873 -0.025786564 0.14888234
000180 0b c6 26 be a0 07 75 bc 5f 83 3b be 48 d5 68 bd
       -0.16286485 -0.014955431 -0.18311833 -0.056844026
000190 37 bb 4c 3e 72 5c 1f be 29 47 42 3e f6 b5 b3 3d
       0.19993292 -0.15562609 0.18972458 0.08774941
0001a0 07 cc c6 bd 68 51 c1 bc b8 03 0c be e2 6a a0 3d
       -0.09706884 -0.023598388 -0.13673294 0.07832886
0001b0 f0 94 82 3c 68 df 2f 3d c4 46 6e 3d f3 63 b6 bd
       0.01594016 0.042937666 0.058172956 -0.089057826
0001c0 30 05 d5 3c 00 c4 9e bb 47 0b 1c 3e 72 34 08 be
       0.02600345 -0.0048451424 0.15238677 -0.13301256
0001d0 b2 25 c2 3d 80 86 49 3b 72 08 a3 3d 20 d7 57 bd
       0.09479846 0.0030750334 0.07960595 -0.052695394
0001e0 f5 61 3d 3e 58 28 24 be 80 3c 7e bc 72 4d e8 3d
       0.18494399 -0.16031015 -0.015517354 0.113428965
0001f0 7e 6f bf 3d 6b f0 31 be 9f 52 47 3e d0 4b 41 3c
       0.09347437 -0.17376868 0.19465111 0.01179786
000200 6d 94 1a be 7d 47 cb bd cf 01 26 3e 65 ae 2a 3e
       -0.15095682 -0.09925745 0.16211627 0.16668089
000210 9d 11 3a be d7 59 d7 bd 00 63 c1 3a 52 88 f5 3d
       -0.18170781 -0.105151825 0.0014754236 0.11988892
000220 cd e7 42 be 93 b8 44 3e 55 59 20 3e 29 46 2a 3e
       -0.19033737 0.19211034 0.15659077 0.16628326
000230 00 63 19 bc 42 2f e4 3d 60 0f 19 bd af b7 04 3e
       -0.009361982 0.11141826 -0.03736818 0.12960695
000240 6d df 41 be 90 7d dc bc 54 18 0a bd 1a cb 07 be
       -0.18932886 -0.026915342 -0.033714607 -0.13261071
000250 1a fc 9f 3d 35 cd 3b be f8 4f 38 bd 91 08 40 3e
       0.078117564 -0.18339999 -0.04499814 0.18753268
000260 0c 15 43 3d 32 90 bb 3d 4d 74 1e 3e 23 52 10 be
       0.047627494 0.091583624 0.15474053 -0.14093833
000270 4a a8 22 be 7c ed 57 3d 32 d7 32 be a2 33 40 be
       -0.1588451 0.052716717 -0.17464903 -0.18769696
000280 80 82 3c bd 40 94 83 bb 80 b0 ea bd 82 f1 8c 3d
       -0.046022892 -0.0040154755 -0.11459446 0.068820015
000290 f7 38 43 be 50 e9 77 3c 00 a6 b5 bb ab e7 24 3e
       -0.19064699 0.01513131 -0.0055434704 0.16104
0002a0 18 f5 34 3d 60 12 9b bb 2e c9 1b be 97 15 1d 3e
       0.044179052 -0.004732415 -0.15213463 0.15340267
0002b0 f7 80 cf bd 3a f2 d8 bd 43 d8 fc bd 60 d5 0e be
       -0.1013202 -0.10593076 -0.12345936 -0.13948584
0002c0 f6 da e7 3d 27 37 16 3e c0 9e 23 be 10 f1 a9 bc
       0.1132106 0.14669476 -0.15978527 -0.02074483
0002d0 9a b4 e2 bd 2a 09 cc 3d 57 3e ca bd d0 9a 02 bc
       -0.11069603 0.099626854 -0.09875172 -0.0079714805
0002e0 40 cd 27 be 40 6e 0c bd c2 36 fd 3d 21 65 09 3e
       -0.1638689 -0.03428483 0.1236396 0.13417484
0002f0 12 ed cb 3d 9d f6 3d 3e 2f 25 30 3e bb 5f 15 3e
       0.09957327 0.18551107 0.17201684 0.145873
000300 6a 4d c8 bd a0 ab 2b be a0 65 2e bd c0 cf 49 bd
       -0.097803906 -0.16764688 -0.042577386 -0.04927039
000310 8a 90 ec 3d 32 9f b4 3d 80 97 3d 3c 2d e6 03 be
       0.11551006 0.088194266 0.011571765 -0.12880774
000320 ca e8 00 be 01 8f 3b 3e e8 da f8 bc 27 29 ab bd
       -0.12588802 0.1831627 -0.03037782 -0.083574586
000330 bb bf 39 be d0 07 ea bc 53 11 f6 bd 63 64 d9 bd
       -0.18139546 -0.028568178 -0.12015023 -0.1061485
000340 3a 9a cb bd cd 32 02 be 4a d9 0d be 4d bd fd bd
       -0.09941526 -0.12714691 -0.1385242 -0.12389622
000350 b0 d2 dc 3c 40 3d 02 be 71 70 3e 3e 6d ea b3 bd
       0.026955932 -0.12718678 0.1859758 -0.087849475
000360 d2 2e 8b 3d f1 27 1c 3e 5a db 89 3d 4c 5c 93 bd
       0.0679604 0.15249611 0.06731291 -0.071953386
000370 86 d3 87 bd 5d ae d8 bd fa 83 bd bd 1a b5 c9 3d
       -0.06632142 -0.10580132 -0.09253688 0.098489955
000380 18 ca 15 be 31 0a 1f 3e e1 ad 2a 3e 88 2e 3b be
       -0.14627874 0.15531231 0.16667892 -0.18279469
000390 60 9b 56 3c 6d 7e e3 bd 52 01 f1 3d 93 b6 2e 3e
       0.013098568 -0.11108098 0.1176783 0.17061834
0003a0 ae 12 b9 3d 08 4e 15 be 69 ad 40 3e 6a 3f 86 3d
       0.09036766 -0.14580548 0.1881615 0.06555064
0003b0 10 86 ca bd ea 65 47 be 0d 15 25 3e 71 c3 32 3e
       -0.09888852 -0.19472471 0.16121311 0.17457367
0003c0 2a fa 13 be 6e 37 b4 3d 55 e1 49 3e 53 6b a0 bd
       -0.14450899 0.08799635 0.19714864 -0.078329705
0003d0 98 fa 27 3d 20 f7 25 bc 78 8c 1e bd 49 55 00 3e
       0.04101047 -0.01012972 -0.03870818 0.12532534
0003e0 80 0e ae bc 0d 79 ba bd 1a 3a e6 bd 59 10 10 3e
       -0.021247149 -0.0910512 -0.11241551 0.14068736
0003f0 4a 13 fc 3d cf b0 2e be 3f 98 43 be 40 65 42 3d
       0.123083666 -0.17059635 -0.19101046 0.04745984

bias f4 [16]
000000 9c 3d 52 3d e7 7f 2d 3e ec 91 18 3d 00 08 3a bb
       0.051328287 0.16943322 0.037248537 -0.0028386116
000010 19 ab 25 3e fa 65 9d 3d ec de 70 bd 8f 89 1c 3e
       0.1617855 0.07685466 -0.058806345 0.1528685
000020 c0 ce a6 3b 40 42 c4 3b 10 27 f4 bc 46 03 8d bd
       0.0050905645 0.005989343 -0.029803783 -0.0688539
000030 00 72 04 3d 40 5d 87 3c 30 50 bd bc 20 5f 17 bc
       0.03233528 0.016523957 -0.023109525 -0.009238988

weight f4 [32, 16, 5, 5]
000000 00 83 3f b9 92 d8 c7 3c a4 af 63 3c 98 9b 88 3b
       -0.00018263981 0.024395261 0.013896856 0.004168939
000010 f1 90 2d 3d be e8 0d bd ba 48 bd bc f0 d9 31 bd
       0.042374555 -0.03464579 -0.023105968 -0.043420732
000020 70 16 9c bb 62 10 8a 3c a2 f4 b7 3c 06 20 c2 3c
       -0.004763417 0.016853515 0.022455517 0.02369691
000030 0c 55 17 3c 0f 29 48 bd b5 8b 2c bd 54 9a 09 bc
       0.009236585 -0.04886728 -0.042125423 -0.008398611
000040 be 67 22 bd 6f 98 35 bd 9f 8a 4b 3d db f4 3e bd
       -0.039649718 -0.044334825 0.049692746 -0.04662023
000050 08 fe 48 3c 83 82 bd bc cd 81 4b 3d 10 b9 a8 bc
       0.012267597 -0.023133522 0.049684335 -0.020596057
000060 c9 29 08 3d 5f 42 2f 3d 5e ca ba 3c 44 ba 80 bc
       0.033242974 0.042787906 0.022801574 -0.015713818
000070 f8 66 09 3c aa 49 0b bd fd 61 ca bc 06 8d cc 3c
       0.008386366 -0.0340058 -0.024704928 0.024969589
000080 f6 3d 04 bd bc 99 5c 3c bd 32 e3 bc ce 37 f2 3c
       -0.032285653 0.0134643875 -0.027734155 0.029567625
000090 c0 18 12 bd 28 3c bd bb c8 6b 06 3c 33 47 1b bd
       -0.035668135 -0.0057749934 0.008204408 -0.037909698
0000a0 28 5b b2 3b 1e c1 28 bd 50 d7 3f bb 05 e5 49 bd
       0.0054429956 -0.041199796 -0.0029272623 -0.049290676
0000b0 94 34 59 bc 8a dc 45 bd 40 9c a1 3a df 6e 3e bd
       -0.0132571645 -0.048306026 0.0012329891 -0.046492454
0000c0 60 dc f8 3a 02 11 fc 3c cb 32 03 3d 0a 7d 98 3c
       0.0018986575 0.030769829 0.03203086 0.01861431
0000d0 b0 26 59 3b a5 9f 29 3d 63 15 19 3d 98 31 ee 3b
       0.0033134632 0.041412015 0.03737391 0.0072690956
0000e0 35 20 3d 3d f8 c8 73 bc 0c 87 13 bc 9a d2 b4 bc
       0.046173293 -0.014879458 -0.009004366 -0.022073079
0000f0 c1 49 3c 3d 40 37 12 ba b5 3b 36 bd 20 3e be bc
       0.045968775 -0.0005577691 -0.044490535 -0.023222983
000100 cd 56 31 bd d7 7e ad bc 58 09 a9 3b 00 b7 9a b9
       -0.04329567 -0.021178646 0.0051585846 -0.00029509515
000110 a8 b2 49 bd 10 9f b2 3b 60 79 72 bc 25 e7 05 bd
       -0.049242646 0.0054510906 -0.014799446 -0.03269114
000120 40 8e c6 bc fe 69 e9 3c 6e 43 a8 3c 8b d1 2f 3d
       -0.024237752 0.028492924 0.020539965 0.042924445
000130 ed 3e 28 3d 00 60 8a b6 8d d4 2c bd fe da dc 3c
       0.041075636 -4.1238964e-06 -0.04219489 0.026959892
000140 57 2c 32 bd d7 c8 ef bc 41 ff 04 3d 83 b1 fe bc
       -0.043499317 -0.029270573 0.03246999 -0.031090504
000150 c2 43 b9 3c cd 51 b2 bc ee 5b e8 3c a0 d5 9b ba
       0.022615317 -0.021767521 0.028364148 -0.0011889227
000160 38 58 13 3c 65 ce 14 bd 03 18 e4 bc 86 1f e3 3c
       0.008993201 -0.036329646 -0.02784348 0.027724992
000170 a9 37 36 3d ec 24 80 bc 08 7a 39 bd a8 82 3a 3c
       0.044486675 -0.015642606 -0.045282394 0.01138369
000180 fd 53 26 bd b4 65 93 bc 9d fd 11 3d fe c6 03 bd
       -0.04060744 -0.017992832 0.035642255 -0.032172196
000190 18 00 81 3b 3d 96 14 3d d1 d6 01 3d 8a da b1 bc
       0.0039367788 0.03627609 0.031699006 -0.021710653
0001a0 cb c9 36 3d e0 94 66 bb 2e a9 d2 3c 00 3c 3f bd
       0.04462604 -0.0035183951 0.025715437 -0.04668808
0001b0 58 9d 4a 3c f3 c2 25 bd f2 b2 fb 3c ed ea 40 bd
       0.012366615 -0.04046912 0.030724976 -0.047099043
0001c0 ed e7 18 3d b0 78 1b bd f4 cb 48 bc 6e 88 cc 3c
       0.037330557 -0.037956893 -0.012255657 0.024967398
0001d0 39 8c 22 3d 39 99 02 3d 0a 8e a6 bc 79 68 25 3d
       0.039684508 0.031884406 -0.020331401 0.040382836
0001e0 83 54 1c bd 8b ca 43 3d b7 24 2c 3d 6d d3 12 3d
       -0.038166534 0.047800582 0.0420272 0.035846163
0001f0 80 05 a4 bb e2 e4 ad 3c 80 bf d5 bc 07 4b b4 bc
       -0.0050055385 0.021227304 -0.02609229 -0.022008432
000200 50 94 6c 3b c7 6b 42 3d 5e ec 8f 3c f0 70 de bc
       0.0036099143 0.047466066 0.017568763 -0.027153462
000210 07 25 9a bc 60 55 20 bd 40 a4 96 bb e0 74 17 bb
       -0.018816484 -0.03914392 -0.004597217 -0.0023110434
000220 27 32 2f 3d 53 d9 f3 bc 6f ec 02 3d 9e 52 dd 3c
       0.04277244 -0.029766714 0.031963762 0.027016934
000230 c0 8f 58 bc f0 50 49 bd 8c 77 65 bc ad ea f3 bc
       -0.013217866 -0.049149454 -0.014005553 -0.029774988
000240 28 1e 69 bc bd e7 d9 bc fd 37 32 bd c0 bb cb bb
       -0.014228381 -0.02659976 -0.043510426 -0.00621745
000250 27 e7 13 3d 0f 00 4b bd ae 51 b3 3c a7 b5 28 3d
       0.036109116 -0.049560603 0.021889534 0.041188862
000260 62 52 b6 3c 5a 85 9f bc e0 03 03 3c cb 1f 47 3d
       0.02225608 -0.019472767 0.007996529 0.048614305
000270 99 73 02 3d d8 c5 4b bc 8c 64 3f 3c e0 c2 1b bd
       0.031848524 -0.012437306 0.011681687 -0.038027644
000280 8b 79 1c 3d 3f ef 44 bd 39 3f 10 3d 80 6e 92 3b
       0.03820185 -0.048079725 0.035216544 0.004468739
000290 cd 2b c0 bc 79 c0 31 3d 98 02 b7 bb aa 94 f4 3c
       -0.023458386 0.043396447 -0.005585026 0.029856045
0002a0 a8 77 94 3b bf d7 2f 3d e9 16 33 3d d8 69 01 bc
       0.0045308657 0.04293036 0.04372302 -0.00789877
0002b0 d0 91 57 3b 5a ab 05 bd bc 91 56 3c d6 67 95 bc
       0.0032893308 -0.032634117 0.013096269 -0.01823799
0002c0 5c 6b 8f bc 8e db ff 3c 2c 45 2f bc c5 fc 2c bd
       -0.017507248 0.031232622 -0.010697644 -0.042233247
0002d0 70 66 d5 3b 18 1d e7 3b ad 0a a5 bc a8 4d 45 bc
       0.0065124556 0.007053029 -0.020146692 -0.0120424405
0002e0 48 bf 28 bc a0 06 2e bb b3 59 35 3d 70 98 fb bc
       -0.010299511 -0.0026554242 0.044274997 -0.030712336
0002f0 6d c3 b0 bc ca 16 f7 bc fd 48 ff bc 5e a3 e9 3c
       -0.021577561 -0.030162234 -0.031162733 0.028520282
000300 e8 b1 0d 3c b6 7a a0 3c d6 d9 20 bd 96 dc 05 bd
       0.008648373 0.019589763 -0.039270245 -0.03268107
000310 e8 09 ab 3b b8 61 41 bd 71 e2 40 3d 59 fd 3c 3d
       0.005219687 -0.047212332 0.04709095 0.04614005
000320 9d cc 26 bd ef ff 06 3d 3a 4d ca bc b7 65 ea bc
       -0.04072248 0.03295892 -0.024695028 -0.028612955
000330 03 16 00 3d 26 49 b1 3c 68 d6 b9 3b a0 5e ca bc
       0.031270992 0.021641325 0.005671311 -0.024703324
000340 bb f8 3f bd 3c 6c 55 3c f9 e9 13 3d 16 df cf 3c
       -0.046868067 0.013026293 0.036111806 0.02537493
000350 cb 01 35 bd cc 24 52 3c e3 b4 a1 bc 55 3a 31 bd
       -0.044191163 0.012826156 -0.019739574 -0.04326852
000360 c8 c6 0e bc a2 a7 c4 3c 13 21 39 bd 2a 2b 48 bd
       -0.008714385 0.024005715 -0.045197558 -0.04886929
000370 a0 70 70 bc 80 ae 91 39 d8 3c 94 bb 18 ce 49 bd
       -0.014675289 0.00027786568 -0.0045238547 -0.049268812
000380 96 c7 0a bd 2c 4b 7a bc ff 50 1f 3d f3 f4 21 bd
       -0.033881746 -0.015276711 0.038895603 -0.039540242
000390 ba 95 d0 bc cd 64 d5 bc 40 31 c8 bb c0 df e3 3a
       -0.02546202 -0.026049042 -0.0061093867 0.0017385408
0003a0 40 fa 12 bd 52 d1 85 3c 1d e3 30 bd 93 7b 02 3d
       -0.03588319 0.016335163 -0.043185342 0.03185613
0003b0 ad 31 aa bc 00 0b ad ba fd 91 36 3d 62 5c 0c bd
       -0.02077564 -0.0013202131 0.04457282 -0.03426779
0003c0 10 2d b1 bb 69 1d 0b 3d ce d1 e0 3c e0 5f 93 bc
       -0.005406983 0.033963595 0.027443793 -0.017990053
0003d0 ef 3f 45 bd a1 f8 2d 3d 4b b3 1e bd 10 d3 e4 bb
       -0.048156675 0.04247344 -0.038745206 -0.0069831684
0003e0 f5 65 06 3d 74 23 28 3c 75 b1 2f 3d ae f3 0e bd
       0.032812078 0.010262359 0.042893846 -0.03490036
0003f0 54 25 6a bc 13 0f 1c bd 40 70 8b bc b5 7a 3f bd
       -0.014291126 -0.038100313 -0.017021298 -0.046747882

bias f4 [32]
000000 c7 fa b0 bc c0 ab 3e 3c 0b 1f 46 bd a8 d3 1b 3c
       -0.021603955 0.011637628 -0.04836945 0.009510912
000010 64 85 64 3c f2 a0 e5 3c 44 0e 6c 3c f9 19 07 3d
       0.013947818 0.028030846 0.014407698 0.032983754
000020 ca ec c7 bc 21 c0 19 3d 39 5d 2e 3d 82 b6 90 3c
       -0.024404902 0.037536744 0.042569373 0.017665152
000030 05 e6 1e bd 9a 16 f4 bc 18 4c 04 bd 6a 8b 2b bd
       -0.038793582 -0.029795934 -0.03229913 -0.041881002
000040 9a d5 c7 3c 20 58 4b bd 56 e2 c6 3c 30 11 b2 bc
       0.024393845 -0.04964459 0.024277847 -0.021736711
000050 81 e3 2f 3d bb 38 29 bd 4d 02 ca bc 65 8e 1c 3d
       0.042941574 -0.041313868 -0.0246593 0.038221736
000060 c1 ad 10 3d a0 12 a2 bc 3a 83 c3 bc 63 dd 04 3d
       0.035321955 -0.019784272 -0.023866285 0.032437693
000070 7e 96 22 bd d7 a6 29 3d 30 9d 7b bb 50 ce 56 3b
       -0.0396943 0.041418876 -0.0038393252 0.003277678

weight f4 [25, 32]
000000 3a d8 c5 3d 00 33 3a ba 26 1d e0 3d b5 94 18 3e
       0.096603826 -0.00071029365 0.109430596 0.14900477
000010 7b 2f 1a be e0 c6 1c 3d a1 05 19 3e 3e db e9 3d
       -0.15057175 0.0382756 0.14943554 0.1141877
000020 53 5e 01 be e8 99 42 bd b2 1e a7 3d 81 1a 32 3e
       -0.12633638 -0.047510058 0.081601515 0.17392923
000030 92 0b b8 3d 00 e0 4b 3c f4 a3 05 3d e8 c7 bc bd
       0.08986582 0.0124435425 0.03262706 -0.092178166
000040 10 df 03 3d 57 4e 2d 3e 06 f1 a2 bd 41 b1 06 be
       0.03219515 0.16924416 -0.07956128 -0.13153554
000050 38 0d ae bc d9 14 2c 3e e7 bd 0c be 53 5e 09 3e
       -0.021246538 0.16804828 -0.13744317 0.13414888
000060 1b c6 02 3e fe ca c4 bd 54 84 ee bd ac 82 05 3d
       0.12770884 -0.0960903 -0.11646333 0.03259532
000070 a1 c7 29 3e e8 02 00 3d db 65 0c 3e 4a 0d cc 3d
       0.16580059 0.03125277 0.1371073 0.09963472
000080 11 1e 31 be f2 1c f5 3d 68 c2 c1 3c 7b ef b4 bd
       -0.17296626 0.119684115 0.02365227 -0.0883474
000090 9a 41 d1 bd d8 90 c1 3c 3b a4 2c 3e 80 1c 7c 3d
       -0.10217591 0.023628637 0.16859524 0.061550617
0000a0 c5 9e 17 be e0 b7 cf 3c de cd 9e 3d 40 2c 6a 3c
       -0.1480666 0.025356233 0.0775411 0.014292777
0000b0 6a 69 88 3d 04 9d 5d 3d 48 ea e4 bc 20 c9 04 3d
       0.06660731 0.05410482 -0.027943745 0.03241837
0000c0 6e 8a f8 3d 5d 4e 2f be 16 8c 02 be 38 28 0e bd
       0.12135778 -0.17119737 -0.12748751 -0.034706324
0000d0 e2 f2 ca 3d ee eb f2 bd 74 53 7f 3d a4 f5 01 3d
       0.099096075 -0.11861406 0.062335446 0.0317284
0000e0 e5 0e dd bd dc e0 10 3d f4 16 4c bd 8a 24 df bd
       -0.107938565 0.035370693 -0.049826577 -0.10895641
0000f0 c8 0a 46 3d 45 6c 07 be ce 06 a6 3d 80 78 02 3d
       0.048350126 -0.13224895 0.08106767 0.0318532
000100 ae e0 ce 3d 80 e7 df bb 0d 4c 27 3e 10 37 5f 3c
       0.10101448 -0.006833017 0.16337605 0.013623968
000110 00 a3 08 bd d0 47 27 be c5 01 19 be 18 a6 09 3d
       -0.033358574 -0.16335988 -0.14942081 0.033605665
000120 a8 df de 3c 96 c5 81 3d 87 3a 21 3e be 14 e6 3d
       0.027206257 0.06336515 0.15744983 0.11234425
000130 a7 c3 22 3e 46 2c b9 bd b8 0e c2 bc 64 4f 3f 3d
       0.15894948 -0.090416476 -0.02368866 0.046706572
000140 6c a5 0b 3d ca 86 e1 3d 80 99 18 bb 11 4f 19 be
       0.034093305 0.11012037 -0.0023284853 -0.14971568
000150 75 bf 1b be 7e 20 01 be 60 03 0d 3d e0 3b 86 3d
       -0.15209754 -0.12610051 0.034427047 0.06554389
000160 82 9d cf 3d 29 f1 d6 bd f7 68 07 be f6 3d 25 be
       0.10137464 -0.104952164 -0.13223635 -0.16136917
000170 9c b6 32 be 6e fe fb 3d 5f 40 99 bd b4 1e b3 bd
       -0.17452472 0.12304388 -0.07482981 -0.087460905
000180 b8 5d 92 bd 14 01 00 3d 33 f2 90 bd b8 3e 14 be
       -0.07146782 0.03125103 -0.07077446 -0.1447705
000190 10 59 1e bd 9e d9 34 be c8 9f 29 be c0 ae 26 be
       -0.038659155 -0.1766114 -0.16564858 -0.162776
0001a0 7c 47 18 3d 28 7d 79 3d 18 ee 81 bc 80 dc e0 bd
       0.037177548 0.060910374 -0.015860602 -0.10979557
0001b0 73 b2 2b 3e d6 5f 88 3d 26 9f 9f 3d 90 81 f3 bc
       0.16767292 0.06658904 0.07794027 -0.029724866
0001c0 a4 39 1d 3d 6c 70 8e 3d 0f 4f 1a 3e 25 c1 1e 3e
       0.03838505 0.069550365 0.15069221 0.15503366
0001d0 05 98 22 3e cf 98 20 3e a6 a7 c4 3d 26 59 a4 3d
       0.15878303 0.15683292 0.09602289 0.08024816
0001e0 21 f4 27 be a1 8e 03 be 80 cf 95 bb af 43 0c be
       -0.16401722 -0.12847377 -0.004571855 -0.13697694
0001f0 0b b7 0a 3e 03 06 1d 3e 81 42 86 bd 20 7c 71 bc
       0.13546388 0.15334325 -0.06555653 -0.014739066
000200 92 c3 d4 3d 21 be 1c 3e 00 d0 3a ba 58 50 39 bd
       0.103888646 0.15306903 -0.00071263313 -0.045242637
000210 76 9a 0a be c4 d1 fb bd 28 aa 50 3d 55 e1 ad bd
       -0.13535485 -0.12295869 0.050943524 -0.08490244
000220 00 6e dd ba 50 a6 4b bd 12 ab 57 bd c9 63 b4 bd
       -0.0016893744 -0.049719155 -0.05265338 -0.08808095
000230 35 1d 09 3e 1e 75 9a 3d dc 25 19 be 10 c0 46 3d
       0.13390048 0.075418696 -0.14955848 0.04852301
000240 e3 ff 0a 3e 4b c2 16 3e 9e 21 ca 3d f1 17 bb bd
       0.13574176 0.14722554 0.09869693 -0.09135426
000250 9e 44 00 be 46 8f 22 be 51 31 1e 3e 7d 4b 0b 3e
       -0.12526175 -0.15874967 0.154485 0.13603015
000260 42 b3 d6 3d 28 87 c1 3c a8 f2 9c bc ed c2 00 be
       0.104834095 0.023624018 -0.019158676 -0.12574358
000270 d5 de 23 be f8 7b be 3c 55 0c cc bd 94 ba fa bd
       -0.16002972 0.023252472 -0.0996329 -0.12242618
000280 e2 02 26 be b0 4d 27 be 2e 14 86 3d df 14 e1 bd
       -0.16212037 -0.16338229 0.06546818 -0.10990309
000290 6a 62 b8 3d 00 0b bb ba f6 97 a1 3d 62 fe f6 3d
       0.09003146 -0.0014270246 0.078903124 0.120602384
0002a0 32 91 69 bd de 86 ee 3d 20 e8 92 bc c0 e4 78 3d
       -0.057023235 0.116468176 -0.017932951 0.060765028
0002b0 1e ea 1d be 18 f8 82 3d 30 17 55 3c cc 44 4d bd
       -0.1542134 0.063949764 0.013006017 -0.050114438
0002c0 b0 7e 8e 3d 94 fc 1f be 84 70 3a bd c0 e1 bf bc
       0.069577575 -0.15623695 -0.04551746 -0.023423076
0002d0 fe 94 5d bd 18 d0 1f bd 80 61 5c bc e8 c9 cf bd
       -0.05409717 -0.039016813 -0.01345098 -0.101459324
0002e0 50 8b b5 bd c6 ba 96 bd 76 bd dc 3d 9e 6f f7 3d
       -0.088644624 -0.07359843 0.10778324 0.12081836
0002f0 02 e8 da 3d 38 4b 42 bd 1e 0e bc bd 91 46 0e be
       0.10688783 -0.047435015 -0.0918238 -0.13894106
000300 a2 21 93 bd 40 b3 42 bd 4b 30 21 be 08 93 15 be
       -0.07184149 -0.047534227 -0.15741079 -0.14606869
000310 98 aa 31 bd 48 03 d5 3c 60 3c 26 be 94 f4 83 bd
       -0.04337558 0.026002541 -0.16233969 -0.06443134
000320 78 31 e7 3c 35 70 ad bd 94 3e 4e 3d 0e d4 bd bd
       0.02822183 -0.084686674 0.050352648 -0.09268962
000330 c8 9f 96 bc ee bc 0c be 66 1d 23 be 52 4b 08 be
       -0.018386737 -0.13743946 -0.15929183 -0.13309982
000340 7a 96 fe 3d c0 eb f7 bc 90 ae b8 3c 90 ba 19 bd
       0.12431045 -0.030263782 0.022544175 -0.037531435
000350 5e d4 fd 3d e5 6b 20 3e 03 80 0e 3e 1c 09 5e bd
       0.123940215 0.15666158 0.1391602 -0.054207906
000360 65 45 31 be c8 8a 84 3d 37 fa 22 3e 20 62 c3 3c
       -0.17311628 0.06471783 0.15915762 0.0238505
000370 e0 14 7f bc 1a 70 32 be 98 16 0b be 8e 6e ae bd
       -0.015568942 -0.17425576 -0.13582838 -0.085171804
000380 6a 09 10 be fd cd 07 be 60 2b 33 3c 28 18 cd bd
       -0.14066091 -0.13262172 0.010935634 -0.10014373
000390 6a ba c8 3d 7f b6 14 3e 72 3a a1 3d c0 ba 6b 3d
       0.09801181 0.14522742 0.07872476 0.057551146
0003a0 5c 10 24 be 26 e9 bf bd 18 3d 07 3d 9a 0c ab bd
       -0.16021866 -0.093706414 0.033017248 -0.08352013
0003b0 46 ea b1 bd 6d 16 23 3e 20 d7 14 bc 98 c6 d9 bc
       -0.08687262 0.15926524 -0.009084493 -0.026583955
0003c0 1c 33 20 be 1c d6 14 3d 14 fc 03 3d 9f f8 0f be
       -0.15644497 0.036337003 0.032222822 -0.14059685
0003d0 f0 be c4 bc e0 a2 31 be 2d d0 ce bd 38 8b 28 bd
       -0.024016827 -0.17347288 -0.100983 -0.041148394
0003e0 ec 78 cb bd a8 3e 87 3d f7 92 27 be f4 06 34 be
       -0.099351734 0.066037476 -0.16364656 -0.17580777
0003f0 a6 f3 a0 3d b0 c8 e1 bc 12 a0 9d 3d a0 62 ce 3b
       0.07858972 -0.027561516 0.076965466 0.006298378

bias f4 [25]
000000 14 8f 84 3d 67 dc 32 be 90 c4 f3 bc 00 d1 ff bc
       0.064726025 -0.1746689 -0.029756814 -0.031227589
000010 80 e5 98 3b e0 cc 90 3b 1a 26 97 3d e0 04 d3 bb
       0.0046660304 0.0044189543 0.07380314 -0.00643979
000020 16 a9 ac 3d 46 2e fb 3d 83 d7 26 3e 80 25 2d bd
       0.08430688 0.12264685 0.16293149 -0.04227209
000030 f5 d5 b9 bd 77 f6 33 3e a6 b5 d4 3d 56 cc f1 3d
       -0.09074012 0.17574488 0.10386209 0.11806552
000040 ed 36 15 be f5 bf a4 bd 62 ef 23 be 8e ce 9e 3d
       -0.14571734 -0.080444254 -0.16009286 0.07754241
000050 d4 f3 00 3d 14 f9 14 3d ca 0d 63 bd e9 17 d0 bd
       0.031482533 0.036370352 -0.055433072 -0.101608105
000060 95 d4 2e 3e
       0.17073281

weight f4 [10, 25]
000000 30 3e c7 bd d7 36 ad bd f8 16 46 be b4 3f 6c bd
       -0.09728658 -0.084577255 -0.193447 -0.05767794
000010 33 a9 14 be e3 7b e6 bd 23 5c ff bd a6 6d ef 3d
       -0.1451767 -0.11254098 -0.124687456 0.11690836
000020 82 e0 82 3d 0c 31 19 bd bc a2 85 bd eb 90 1f be
       0.06390478 -0.03740029 -0.0652518 -0.15582626
000030 57 2b 38 be 20 cc 01 be 8e ea 9a 3d 6b 6e 1c 3e
       -0.17985283 -0.12675524 0.07564269 0.15276496
000040 50 94 6f bc 35 3e 28 3e ac 7d 7f 3d 10 d5 9e bd
       -0.014622763 0.1642998 0.06237571 -0.07755482
000050 b7 98 ec bd 31 03 18 3e 14 27 1a 3d 00 10 db 39
       -0.115525655 0.14844967 0.037634924 0.00041782856
000060 a6 3b cc 3d 70 17 3d be 4e 19 94 3d 18 ec 00 bd
       0.099723145 -0.18465972 0.07231389 -0.031475157
000070 ce 1d d9 3d 2c 56 6a bd 9d a4 a1 bd bb 2e 49 be
       0.10601388 -0.057211086 -0.078927256 -0.19646733
000080 36 3c 0a be 80 51 c1 bd 00 6a a2 3c 50 1f 0f bc
       -0.13499531 -0.09439373 0.019825935 -0.008735493
000090 e8 d3 ee bc f3 6b 3c 3e 00 89 20 3d 60 b7 a5 bb
       -0.02915378 0.18400554 0.039193153 -0.0050572604
0000a0 f2 15 37 be 9a 8f f8 3d 48 56 09 bd f0 0b cf 3c
       -0.17879465 0.12136765 -0.03352955 0.025274247
0000b0 13 0c 9e bd fa cd 8d bd 4c 82 61 bd 72 ef e3 3d
       -0.07717147 -0.069240525 -0.0550559 0.11129655
0000c0 98 27 05 be 60 7e 0c 3d ac b0 69 bd 20 10 53 3c
       -0.13003385 0.034300208 -0.057053253 0.0128822625
0000d0 2a 62 90 bd 12 29 00 be c0 54 7a 3b 8d d6 13 be
       -0.07049973 -0.12515667 0.0038197488 -0.14437313
0000e0 a3 fd 19 be 82 de 9e 3d bb 65 33 3e 96 c3 12 be
       -0.15038161 0.07757284 0.17519276 -0.14332423
0000f0 6d 07 2c be 28 f0 2b be 60 5d 25 3c b7 30 c7 bd
       -0.16799708 -0.16790831 0.010093063 -0.097260885
000100 83 96 e9 bd 38 ed 1a bd e1 84 44 3e 99 d9 0a 3e
       -0.11405661 -0.037823886 0.19191314 0.1355957
000110 60 d1 52 bd 00 da 67 ba d3 59 44 3e 68 5f 2d bd
       -0.051469207 -0.0008844435 0.1917489 -0.042327315
000120 c2 59 ab 3d 64 57 75 3d 78 d6 25 bd a2 9a 96 3d
       0.08366729 0.059897795 -0.040487736 0.073537126
000130 6f 90 1e 3e 8f 0b 4b be 83 9c 44 be b2 8b 94 3d
       0.15484785 -0.19828628 -0.1920033 0.07253207
000140 52 37 13 be 3f 3e 46 be 8e dc c9 3d ee e5 bf 3d
       -0.14376572 -0.19359683 0.098565206 0.093700275
000150 cc b9 71 3d 00 85 1c 3d f1 e1 05 3e a6 e4 98 3d
       0.05901508 0.038212776 0.13074471 0.07465486
000160 7f 92 00 3e 54 04 64 bd c9 4f 14 3e 0c ed 67 bd
       0.12555884 -0.05566819 0.1448356 -0.05662255
000170 cd 78 49 be ba e4 c3 bd e3 06 eb bd f4 b9 01 3d
       -0.19674988 -0.095651105 -0.11475923 0.03167148
000180 fc a4 09 be 99 0d 03 3e af f6 2b 3e 50 d7 d4 bc
       -0.13441843 0.12798156 0.16793321 -0.025981575
000190 68 9a 27 bd 7c e0 76 3d 1f 78 1d 3e 72 96 17 be
       -0.040918738 0.06027268 0.15377854 -0.14803484
0001a0 10 5b e6 3c ac 88 81 bd a8 31 31 bd a0 dc a9 bd
       0.028119594 -0.06324896 -0.043260247 -0.08294034
0001b0 d9 1a 3d 3e 68 18 72 bd 1c 10 8f bd 44 68 4d 3d
       0.18467273 -0.059105307 -0.069854945 0.050148264
0001c0 5a 4f b9 bd ec 77 35 3d 0d 1f a4 bd 24 f0 60 3d
       -0.09048338 0.04430382 -0.08013735 0.054916516
0001d0 ac a4 02 3d e6 1b a8 3d ce 61 e6 3d b4 46 50 3d
       0.031895325 0.08208446 0.112491235 0.050848678
0001e0 60 2d 3f bd 18 1c d5 3c 63 fb e6 bd 00 36 1c 3a
       -0.046674132 0.026014373 -0.11278417 0.00059589744
0001f0 24 7a 53 3d 68 07 a3 3c 10 f5 fc 3c 60 07 10 bd
       0.051630154 0.019900993 0.030878574 -0.035163283
000200 3c 82 76 3d f6 98 eb 3d ab 2b 12 3e 30 5c 07 3c
       0.060182795 0.11503784 0.1427447 0.008261725
000210 a8 84 95 bc 05 85 08 3e fe 37 02 be 5b 5c 1e 3e
       -0.018251732 0.13331993 -0.12716672 0.15464918
000220 cc d3 15 bd d2 8d 0d be 30 49 64 3c 07 4b 08 3e
       -0.03657894 -0.13823631 0.013933465 0.1330987
000230 94 77 24 3d 90 8d d6 bd a0 af f0 bb e8 96 ef 3c
       0.0401531 -0.1047622 -0.007345155 0.029246762
000240 d9 af 36 3e 60 89 38 be a0 96 a2 3b 1f af 40 3e
       0.17840518 -0.18021154 0.0049618036 0.18816803
000250 02 78 82 3d 2e 6e e2 3d d0 fd e1 3c cf 55 47 3e
       0.06370546 0.11056171 0.027586848 0.19466327
000260 30 b9 cd bd a7 38 b3 bd 98 3a 29 bd 80 24 1a bb
       -0.10045087 -0.0875104 -0.041315645 -0.002352029
000270 3a 16 ef bd 78 64 1d 3d f7 51 cf bd d4 87 99 bd
       -0.11674161 0.038425893 -0.101230554 -0.0749661
000280 58 84 e6 bc 44 b2 6e 3d f9 d6 03 3e 4d d5 0f 3e
       -0.028139278 0.058275476 0.12874974 0.14046212
000290 00 a6 eb bb d2 3c 8d 3d b2 45 d3 3d 24 f8 60 3d
       -0.0071914196 0.06896366 0.10316028 0.054924145
0002a0 00 c7 55 bc a2 19 06 be ce 7a e2 3d 14 23 55 3d
       -0.013047934 -0.13095716 0.110585794 0.052035406
0002b0 ae 6a 87 3d 4a 9d ba 3d 39 91 2a 3e 86 bc 00 be
       0.066121444 0.09112032 0.1665696 -0.12571916
0002c0 33 5a ce bd a2 c4 fc 3d 13 34 2d be 2d 66 0b be
       -0.10075798 0.12342192 -0.16914396 -0.13613196
0002d0 42 f9 94 3d aa b0 b8 3d f0 10 ef 3c 29 4d 48 3e
       0.07274105 0.09018071 0.029182881 0.19560684
0002e0 54 d5 4b bd b3 bb 4c 3e 48 4d 3b be 00 55 f6 3c
       -0.049763992 0.19993477 -0.18291199 0.030069828
0002f0 3a 12 21 be dc 55 6d 3d c0 59 2f be 44 c9 89 bd
       -0.15729609 0.05794321 -0.1712408 -0.067278415
000300 58 7f 0b bd 12 0d bb 3d 9a da 08 be b0 db b5 bd
       -0.03405699 0.09133352 -0.1336464 -0.08879793
000310 ec 89 27 3d 6a 43 34 be e0 59 1c be 7b bb 07 3e
       0.040903017 -0.17603841 -0.1526866 0.13255112
000320 bf 7c 39 be 7d 0c 3e be 68 dc bc 3c 16 54 b5 3d
       -0.18113993 -0.18559451 0.023054317 0.08853929
000330 6a 41 92 bd d3 97 3a 3e 74 b3 5a 3d 18 ac 1f 3d
       -0.07141383 0.18221979 0.053393796 0.03898248
000340 78 d3 29 be 76 5b af 3d 53 b5 29 3e 32 82 dd 3d
       -0.16584575 0.08562367 0.16573076 0.108158484
000350 ee 69 9d 3d 1a 78 99 3d 60 86 77 3c f7 0f a9 bd
       0.0768622 0.07493611 0.015107721 -0.08254998
000360 29 73 16 3e 74 10 00 bd ca c2 f0 3d 15 07 24 be
       0.14692368 -0.03126569 0.11755903 -0.16018327
000370 00 8d fc bc 5d 10 ad bd 80 13 4a be 40 6f 3a bd
       -0.030828953 -0.08450387 -0.19734001 -0.045516253
000380 8a a7 03 be 38 d1 28 3d 5a ae 81 3d b6 a3 82 3d
       -0.1285688 0.04121515 0.06332083 0.06378882
000390 03 32 30 3e 72 d1 d8 3d e2 c3 b8 3d f7 a1 ef bd
       0.17206578 0.105868235 0.09021737 -0.11700814
0003a0 a8 88 15 be 72 8f c4 3d 5a ec 9c bd 07 a8 9f bd
       -0.14602911 0.095976725 -0.07662268 -0.077957205
0003b0 8a 69 d9 3d 17 eb c1 bd 4d 21 f8 bd 6d 57 1f be
       0.10615833 -0.09468668 -0.121157266 -0.15560694
0003c0 89 01 14 3e 32 fd c4 3d 78 8d 11 3d 88 c4 78 bd
       0.1445371 0.09618606 0.035535306 -0.0607343
0003d0 ad 4d 4b 3e a2 56 c0 3d 43 ba de bd 4d 79 34 3e
       0.1985385 0.09391524 -0.1087537 0.17624398
0003e0 6d e4 3e be ee 8b c4 3d
       -0.18641825 0.09597002

bias f4 [10]
000000 b6 73 e2 3d bb e5 4a 3e a0 0f 70 bd e8 60 33 3d
       0.11057226 0.19814198 -0.05860865 0.04379359
000010 6c 36 5f 3d 42 5c a1 3d 67 0f da bd bd 98 37 3e
       0.05449526 0.07878925 -0.10647469 0.17929359
000020 ed b3 2d be 65 5d 08 3e
       -0.16963167 0.13316877

layer1.0.weight f4 [16, 1, 5, 5]
000000 c1 c1 47 be 28 c6 37 be e6 9e 90 3d 55 76 f3 bd
       -0.19507505 -0.17946684 0.070615575 -0.118878044
000010 9a be a0 bd c5 28 18 be ca 1d dd 3d e2 52 37 3e
       -0.07848854 -0.14859302 0.107966974 0.17902711
000020 7c b1 c7 bd 71 bc 41 bc bd 16 35 be 62 16 87 3e
       -0.09750649 -0.011824713 -0.17684455 0.26384264
000030 36 3c 09 3e a7 66 0f be 58 e4 ad bd 23 4e 15 3e
       0.13401875 -0.14004003 -0.08490819 0.14580588
000040 8f 19 6a 3d fc 56 0e be b1 96 5f be ff b7 3a 3d
       0.05715328 -0.1390037 -0.21834828 0.04558563
000050 1c 06 ff 3d 30 88 d7 bd 9c cb 4f be fd 94 39 be
       0.12452337 -0.105240226 -0.20292515 -0.18123241
000060 e2 49 96 bd 5d e1 00 be a5 ae e0 3d 97 39 77 bd
       -0.07338311 -0.1258597 0.10970811 -0.060357656
000070 e6 33 97 3d d9 37 bd bd 2e 8a 2e be 75 e6 13 be
       0.07382946 -0.09239168 -0.17044899 -0.14443381
000080 3e 8b d0 3c d2 57 52 be b7 c7 fd 3d 15 d3 bf bb
       0.02545702 -0.20541313 0.12391608 -0.0058540204
000090 81 9c cb 3d fa 5a 67 be f1 f2 4e 3a a1 ef 20 be
       0.0994196 -0.22593299 0.00078944775 -0.15716411
0000a0 04 3b 45 3a 9d 82 c1 3c 61 ed 04 be 53 1e 0b 3e
       0.00075237476 0.023621852 -0.12981178 0.13585787
0000b0 c2 77 a5 bd 2e 76 f6 3d a7 ec c5 3d 2c d1 9a 3d
       -0.080794826 0.1203426 0.096642785 0.075594276
0000c0 3d 96 19 be 33 de 11 3e a7 92 33 3d c7 54 4e be
       -0.14998718 0.14244919 0.04384103 -0.20149527
0000d0 cd c5 95 3c 43 a2 20 3e 64 91 e3 3c 5c 8d 0a be
       0.018282795 0.15686898 0.027779289 -0.13530487
0000e0 b5 80 ee bd 2b 46 e4 3d cd d8 09 be 7d 74 1f be
       -0.11645643 0.11146196 -0.13461609 -0.1557178
0000f0 78 7e 21 be 4d dd 94 3d b7 13 69 3b a6 30 11 be
       -0.157709 0.07268772 0.003556473 -0.14178714
000100 3c 51 c8 3c a8 07 7d bd 59 7f d3 3d 4d 04 b4 3d
       0.024452798 -0.06177488 0.10327024 0.08789883
000110 08 e6 4c be eb 90 0e 3e 76 c5 1f 3d c3 da c4 3c
       -0.20009625 0.1392247 0.039006673 0.024030095
000120 f5 b9 88 bd 6d f6 33 be f1 63 31 be ae 27 9b bd
       -0.066760935 -0.17574473 -0.17323281 -0.07575928
000130 39 36 2c be ef 8b f0 3d 53 c5 30 bd 1b 80 af bd
       -0.1681756 0.1174544 -0.043156933 -0.08569356
000140 39 69 c8 3c f4 5e 31 3d f4 00 c7 3d 17 48 36 3d
       0.024464237 0.043303445 0.09716979 0.044502344
000150 c8 81 78 bd ac 68 a7 bd 50 4f db bc 0e d8 0b 3e
       -0.060670644 -0.081742615 -0.026771218 0.13656637
000160 d0 b8 ab bd 05 00 49 3d 80 69 8e bd cf a4 c7 bd
       -0.083848596 0.049072284 -0.06953716 -0.097482316
000170 75 04 d1 bc 63 0c 59 be 53 f9 03 bd 4e e3 5d 3d
       -0.02551482 -0.21196131 -0.032220196 0.054171853
000180 a4 62 14 3e cd f8 5d bd a6 06 c4 3d 1d e5 5e 3d
       0.14490753 -0.054192353 0.095715806 0.05441772
000190 8f eb 1a 3e ba 94 e3 bd 7b 4a 95 3d df b6 47 bd
       0.15128921 -0.11112352 0.07289597 -0.048758384
0001a0 ba e0 be 3d 96 fb 9e bc 8d 20 c2 3d 0f 0c 8b 3d
       0.09320207 -0.019407075 0.09478865 0.06789409
0001b0 76 28 95 3d 76 46 5b 3e 9c c8 14 bc 6e 4a 39 be
       0.07283108 0.21413597 -0.009081032 -0.18094799
0001c0 a5 2b f8 bd 09 e6 d4 bd 6a c4 53 be a9 c3 ae bd
       -0.121176995 -0.10395438 -0.20680395 -0.08533413
0001d0 81 50 af 3d a9 15 07 3d ed 52 99 bc a1 9f 27 be
       0.08560277 0.03297964 -0.0187163 -0.16369487
0001e0 91 f9 33 be 06 c4 8d bc 93 75 0e bd b7 1d b1 bd
       -0.17575671 -0.017305385 -0.034780096 -0.08648246
0001f0 79 5b 13 3e 73 a6 16 3e 8b f5 3f 3d 09 00 6c 3d
       0.14390363 0.14711933 0.046865027 0.05761722
000200 71 8a 5e bc 23 cf fe 3d ae 61 16 3e 22 df 25 3e
       -0.013582812 0.12441852 0.146857 0.161984
000210 df 75 f8 3d 62 15 07 be dd ff a6 bd b5 07 80 be
       0.12131857 -0.1319175 -0.08154271 -0.2500588
000220 5f 46 bf 3c 92 c8 58 3d 6d c7 08 bc 58 e2 0c 3d
       0.023348985 0.052925654 -0.008348328 0.034395546
000230 32 63 c7 3d 3f 8b 3c be d8 49 5e 3d 96 0e 3b be
       0.09735717 -0.18412493 0.05426964 -0.18267283
000240 c0 15 10 be d5 69 5a be ca 31 7f 3d cd cc 2f 3d
       -0.14070797 -0.21329434 0.062303342 0.042919923
000250 b0 a2 c1 bd 22 ee 44 bc d4 a2 11 be 2f 76 e8 bd
       -0.09454858 -0.012019666 -0.1422227 -0.11350667
000260 4b 53 53 3d 04 a6 16 3d eb 90 0b be f1 5c 1e 3c
       0.051593106 0.03677942 -0.136295 0.009665714
000270 6e 98 9b bd e1 80 d3 3d 84 88 c7 3d b5 6a 30 be
       -0.07597433 0.10327316 0.09742835 -0.17228206
000280 80 9c 2e be 49 c9 28 be f2 c1 8b 3d 1a 0e 31 be
       -0.17051888 -0.16483034 0.068241015 -0.17290536
000290 5c 41 f1 bd 3b 36 12 3d df 5c 17 3e 83 61 2c 3e
       -0.117800444 0.03569625 0.14781521 0.16834073
0002a0 30 0b 43 be 23 67 02 3d a3 05 eb bd e9 90 f2 3c
       -0.19047236 0.03183664 -0.114756845 0.029610114
0002b0 67 e8 bc 3d 09 e4 5d 3d 3a e4 b1 bd b2 86 bf 3d
       0.09224015 0.05417255 -0.08686109 0.09351863
0002c0 f6 ad 9c 3d 77 85 a5 3d a8 67 1c be fa db 4e 3e
       0.07650368 0.08082097 -0.15273917 0.20201102
0002d0 66 e2 ba bd d9 ac 00 bd 24 7a 1e bb c3 99 4f be
       -0.09125213 -0.03141484 -0.0024181688 -0.20273499
0002e0 76 45 3e bd 60 87 00 be d1 ce 84 3d 08 73 a4 bd
       -0.04645296 -0.12551641 0.064847596 -0.08029753
0002f0 ad d5 1f be 4d a6 b1 3d 13 0d dc bd 91 f5 fc bc
       -0.15608855 0.086742975 -0.10744681 -0.030878814
000300 15 eb 51 bd 9a f8 14 bc f6 73 e8 3d 68 a2 bc bd
       -0.051249582 -0.009092474 0.11350243 -0.09210664
000310 50 39 e5 3d 4b d1 26 be dc c5 00 be fa 33 57 3e
       0.11192572 -0.16290776 -0.12575477 0.21015921
000320 17 97 de bd 70 f7 e8 3d 66 9f e7 bc e1 41 00 3e
       -0.10868662 0.1137532 -0.02827425 0.12525131
000330 1c 8c 95 bd 81 53 17 bd 7f 21 12 bc a1 af ed bd
       -0.07302114 -0.03694487 -0.008919119 -0.11605764
000340 50 06 8d ba cb 43 77 3d 4b ff 9f bc 14 00 33 3d
       -0.0010759328 0.060367387 -0.019530913 0.043701246
000350 87 b5 b5 bd 45 f2 cf bd 30 b5 65 3d a5 c1 15 be
       -0.08872514 -0.10153631 0.056080997 -0.14624651
000360 8b 97 e8 bd 9f e0 db 3d ca 2c f2 bd 7b 34 98 bd
       -0.113570295 0.107362024 -0.11824949 -0.07431885
000370 8d d7 2c 3e 35 82 83 3d 42 36 65 bd b1 4a ee 3d
       0.16879101 0.064213194 -0.055959947 0.1163534
000380 4f 4e 30 bd 95 65 c0 3c d7 00 95 bd e7 0c 28 3e
       -0.04304343 0.023485938 -0.07275551 0.16411172
000390 30 3a ef 3d 54 74 24 be ac 46 d3 bd 93 2e 48 be
       0.1168102 -0.1606 -0.10316214 -0.19549017
0003a0 60 a1 4d be 89 f9 29 be 2e 08 09 3e 76 b7 d8 3d
       -0.20081091 -0.16599096 0.13382027 0.105818674
0003b0 37 9d f1 bd ef b2 3b 3e ba 56 2d be eb fa 39 be
       -0.117975645 0.18329976 -0.16927615 -0.18162124
0003c0 4a a9 d3 3d 94 c0 1a 3e 27 dc 72 3d 48 c4 b5 3d
       0.10335024 0.15112525 0.059291985 0.08875328
0003d0 be 0c 01 3d 51 ff 8b bd d0 0c e9 bd 96 e9 13 be
       0.031506293 -0.06835807 -0.11379397 -0.14444575
0003e0 e6 93 0c 3d 51 40 20 3e 35 9b 8c bd 29 bc 0e be
       0.034320734 0.15649535 -0.06865541 -0.13938965
0003f0 d2 39 6a 3e d4 6c b4 bd 26 2b f4 bd 2c 1a 1d be
       0.22873619 -0.0880982 -0.119222924 -0.15342015

layer1.0.bias f4 [16]
000000 72 92 39 3c 9b 11 c6 bd ce 78 2d 3e 1e 11 79 3d
       0.011326419 -0.09671327 0.16940615 0.06080734
000010 50 9c 48 3e 8d f0 cb bb 11 c5 85 bd a9 e2 b6 3c
       0.19590878 -0.0062237442 -0.06531728 0.022324877
000020 cb 31 29 be f7 8a c4 bd 02 4d 82 bd 5a 0a dd 3d
       -0.16522901 -0.09596818 -0.06362344 0.1079299
000030 89 7e 92 3d b1 00 1a 3d a3 4d 7e bc 2a 28 a2 bd
       0.07153041 0.037598316 -0.01552144 -0.07917817

layer2.0.weight f4 [32, 16, 5, 5]
000000 b7 4d 04 3d 1d 0a ba 3c 91 16 0f bd 35 79 87 bc
       0.032300677 0.0227099 -0.03493363 -0.016537288
000010 9f 81 11 3d 60 e8 1f bd fc 19 99 bb 59 15 37 3c
       0.035524007 -0.03903997 -0.004672287 0.011174523
000020 60 fd 3d bd 73 14 47 bd 8c fc 4a 3d c2 ff 70 3c
       -0.046384215 -0.048603486 0.049557254 0.014709415
000030 42 34 63 3c 64 af 3b bd ca 62 7e bb 20 f7 fa bb
       0.01386744 -0.045821562 -0.0038816207 -0.007658854
000040 80 9b 06 3d ae cc 17 3d 87 d1 db bc d6 a7 e6 bc
       0.03286314 0.037060432 -0.026833309 -0.028156202
000050 a4 b2 8f bc 93 4b 4b bd 61 07 0d bd d4 a7 b9 bc
       -0.017541237 -0.04963262 -0.034430865 -0.022663034
000060 dd 60 17 bc 96 a9 ff 3c 72 4b 0d bd 50 f8 4d 3c
       -0.009239403 0.031208795 -0.03449578 0.012571409
000070 7e 4a a9 bc be 33 d1 3b aa 52 43 bd 74 36 2d bd
       -0.020665403 0.006384342 -0.047686256 -0.04228826
000080 ca 61 dd bb 66 8d 03 bd 35 10 21 bd 1b 7c e0 bc
       -0.006756042 -0.03211727 -0.039322097 -0.027402928
000090 54 86 44 bd 59 90 01 bd ad 12 58 bd e8 ba bd 3a
       -0.047979668 -0.0316318 -0.052752186 0.0014475258
0000a0 7f ff b9 bc 56 48 bc 3c af f3 7a bd f7 7f 00 3d
       -0.022704838 0.022983711 -0.06126755 0.031372037
0000b0 ab 1b 3e bd b8 f5 d0 bc d0 ca 35 bd aa 90 c8 3a
       -0.046413105 -0.025507793 -0.04438287 0.0015301902
0000c0 fc e1 02 3d 4e b0 80 3c 1c da 0d bd 4e cb be 3c
       0.031953797 0.015709069 -0.034631833 0.023290303
0000d0 c1 0c 8f bc 75 0f 45 3d f5 aa 44 bd f6 2a 97 bc
       -0.017462136 0.048110444 -0.0480146 -0.018453103
0000e0 f6 38 6f 3c b0 11 c3 3c 35 32 17 3c 75 c6 1d bd
       0.014600983 0.023812145 0.009228279 -0.03851934
0000f0 65 86 d6 3c 52 02 07 bd f8 94 e6 3c 9e 08 17 3b
       0.026187131 -0.032961197 0.028147206 0.0023045908
000100 dd f7 ba 3c c1 6a 9b bc 55 48 20 bd b8 5b 0c 3d
       0.022823269 -0.018971803 -0.03913148 0.034267157
000110 26 a2 39 bd 3e 3e f7 bc c6 6b 03 3d 38 d3 f0 bc
       -0.045320652 -0.030181047 0.032085203 -0.029397592
000120 fa 63 b4 3c 51 dd 09 bc 56 03 b8 3c d5 90 30 bd
       0.022020329 -0.008414582 0.022462528 -0.043106873
000130 2b b3 42 3d 55 bb 22 3b a1 e6 e1 3c b7 5c bb bc
       0.04753415 0.0024830897 0.027575793 -0.022871358
000140 59 eb bd bc 22 3c ea 3c b4 fb fa bc f1 76 01 3b
       -0.023183512 0.028593127 -0.0306376 0.0019754732
000150 d4 03 b6 bc 96 7f e9 bc 9a 1e 09 bd cb f9 00 bc
       -0.022218622 -0.02850322 -0.03347645 -0.007872055
000160 48 d3 50 3c e2 26 17 bd d3 6e 22 3d 97 56 de 3b
       0.012745686 -0.036902316 0.03965647 0.0067852247
000170 b6 d3 0f bc 7f 7e 1c 3d 6d 22 77 bc 00 09 76 bb
       -0.008778503 0.038206574 -0.015083891 -0.0037541986
000180 e2 5d 40 bc b1 54 f3 3c 76 38 2c 3d f9 6c 45 bd
       -0.011741133 0.02970347 0.042046033 -0.048199628
000190 0a ce 1f bd c8 c9 de bb 1a 95 f0 bc e2 1f 6d bb
       -0.039014854 -0.0067989565 -0.029367972 -0.0036182334
0001a0 41 9b e6 3c d8 8f 0e 3d 1d 43 23 3d d3 02 78 bb
       0.028150203 0.03480515 0.039858926 -0.003784348
0001b0 33 45 e1 3c 93 b7 c2 3c a0 e6 49 b9 38 0a 54 bd
       0.027498817 0.023769176 -0.00019254768 -0.051767558
0001c0 ba 19 7f 3c a8 c8 86 3b 3e cf 03 bb 18 19 44 3c
       0.0155700985 0.0041132756 -0.002011254 0.011968873
0001d0 52 ca 63 bc 1d a4 11 bd cc ae 02 bd 5c 22 0c bd
       -0.013903217 -0.0355569 -0.03190498 -0.034212455
0001e0 41 c9 37 bb 5c ba af bc 87 6d c0 3c 63 78 c2 3b
       -0.002804354 -0.021451168 0.023489727 0.0059347614
0001f0 46 38 fd 3c bf 74 38 3d db 5d 0c 3d 9f 75 bd bc
       0.030910622 0.045033213 0.034269195 -0.023127375
000200 25 b4 35 bd 4f d5 89 bc 21 a0 60 3b 19 88 b4 3c
       -0.044361252 -0.016825346 0.0034275132 0.022037553
000210 74 e8 ef bc c0 df 94 bc 47 07 bf 3c 95 34 f3 3c
       -0.029285647 -0.018173099 0.0233189 0.029688159
000220 41 e0 c0 bc e1 38 f2 3c 12 f5 bc 3c c8 18 6d bc
       -0.023544433 0.029568138 0.023066077 -0.01447124
000230 21 06 45 3c 48 86 82 3c 3f ee 6e bd f9 a6 a6 bc
       0.012025387 0.01593317 -0.058332678 -0.02034329
000240 13 08 56 bb e6 0f d6 3b 15 11 a8 3c be c1 f4 3a
       -0.0032658621 0.006532657 0.020515958 0.0018673462
000250 a7 59 11 bc 62 af 05 bd 58 d3 c7 3b c5 8f 0d 3d
       -0.008871472 -0.03263796 0.006098192 0.034560937
000260 44 b7 9b 3c ee 82 b6 bc 76 eb c2 bb 0d 60 51 bc
       0.019008286 -0.022279229 -0.0059484793 -0.012779248
000270 d4 f7 80 bb 40 12 17 bd db 1a b6 bc 85 02 be 3c
       -0.0039357934 -0.03688264 -0.022229603 0.02319456
000280 bb 88 d5 bc 26 a8 00 3b d8 89 dc 3a 73 15 a0 bb
       -0.026066175 0.0019631474 0.0016825749 -0.0048853694
000290 2d 0c a2 3c 32 3c 21 bd 4d 8e 65 3c c3 c4 4c 3c
       0.019781196 -0.039364047 0.014010978 0.0124980835
0002a0 7f f0 da bc f4 7f c9 3c fc 74 3b bd f5 ea 15 3d
       -0.026726006 0.024597146 -0.045765862 0.036601026
0002b0 3e fb 48 bd 87 ee 58 3c f6 66 ab 3c ea 3f 47 3c
       -0.04906773 0.013240463 0.020923119 0.012161234
0002c0 da 1c 45 3c c7 b0 f9 bc 77 0b c7 3c 59 19 46 bd
       0.0120308045 -0.030479802 0.024297459 -0.048364017
0002d0 6b 50 84 3c 0e b9 45 bd ed f2 0e bb 06 e8 9c bb
       0.016151628 -0.048272185 -0.0021812276 -0.0047884015
0002e0 cf c6 66 bc ad 94 9e bc a6 80 b4 3c 2a ac 74 3c
       -0.014085486 -0.019358004 0.022034 0.014933625
0002f0 9f 2d 51 bb 57 40 f7 3c 7a 3d 1d 3d 31 d2 d3 3c
       -0.0031918061 0.030182047 0.038388707 0.025857063
000300 f0 f1 d1 bc 1c 3b 49 bd ca 6d ca bc c4 7c 48 bd
       -0.02562806 -0.049128637 -0.024710555 -0.04894711
000310 56 32 0c bd 1c c1 ea bc e7 aa 1d 3d 61 4d 68 3c
       -0.03422769 -0.028656535 0.038493063 0.014178605
000320 81 25 84 bc 9e 51 41 bd bc e6 9b 3c 4e 00 da 3c
       -0.016131165 -0.047196977 0.019030921 0.026611473
000330 6a d5 29 3c 33 82 a5 bc bd ce 1e ba a7 09 28 bd
       0.010365823 -0.020203685 -0.0006058028 -0.04102483
000340 79 7c 18 3c ab b3 06 3d 6b b5 be bb 16 bf d8 bb
       0.00930702 0.03288619 -0.0058199666 -0.006614576
000350 f4 ef 20 bc c3 92 6e bd 06 41 5c bd b8 20 2f 3d
       -0.009822834 -0.05824543 -0.05377295 0.042755812
000360 7c 70 cc 3c cf 37 c9 3c 5d 06 3d bd f3 5f b2 bc
       0.02495598 0.024562744 -0.046148647 -0.021774268
000370 f2 bf f2 3c 1d 3a 98 ba 77 cd 59 bc c3 dd 87 bc
       0.029632542 -0.0011613999 -0.013293616 -0.016585236
000380 b2 6f 9d bb 1f 8b 20 3d 04 37 a9 3b c0 d0 89 bc
       -0.004804575 0.039195176 0.005164029 -0.016823173
000390 cb 88 ab 3c 0b 37 b6 3c 94 fb 0a 3b 94 95 40 3c
       0.020939251 0.022243043 0.002120708 0.011754412
0003a0 62 d2 aa 3c 8b aa 1c bb 62 b8 aa 3c 7b 8f 84 bc
       0.020852271 -0.0023905362 0.020839874 -0.016181698
0003b0 aa 06 39 3c 3c f3 43 3c 90 93 3b 3c 48 fe 45 bc
       0.011293093 0.011959847 0.011448756 -0.012084551
0003c0 5a c7 18 bd 77 b3 ba bc 55 0b 00 3c 47 37 bf bb
       -0.03729949 -0.022790654 0.007815202 -0.005835447
0003d0 33 ab d6 bc d3 fc 05 3d 66 76 12 bc e2 f8 13 bb
       -0.026204681 0.032711815 -0.008939361 -0.0022578766
0003e0 03 a2 d5 3b 93 c3 8c 3c 3d 18 37 bd f5 52 d3 bc
       0.0065195574 0.0171831 -0.04470085 -0.025796393
0003f0 be 9c 2f 3d 8a e9 05 bc 6d 28 03 3d c5 dd 33 bd
       0.04287409 -0.008173356 0.032020975 -0.043912668

layer2.0.bias f4 [32]
000000 2c 75 c7 bc 86 10 cf bc 34 bc 28 3d d0 f9 77 3c
       -0.024347864 -0.025276434 0.04119511 0.015135244
000010 56 60 9b 3c 36 8a 12 bd f6 0d f7 3c 3f a0 46 bd
       0.018966835 -0.03577634 0.030158024 -0.048492666
000020 1f 2c 3b bd c1 57 e0 bb e1 f2 2a 3d 94 92 38 bd
       -0.045696374 -0.0068463986 0.041735534 -0.045061663
000030 ab 8d 2b bd e0 7c fd bc 2f b6 0b bb 34 e3 11 bd
       -0.041883152 -0.030943334 -0.0021318307 -0.03561707
000040 85 a0 11 bd 85 3c 06 3c 8d 78 02 bd dd c7 e8 bc
       -0.035553474 0.00819314 -0.031853247 -0.028415615
000050 5f ea 4b 3c fe 43 30 3d ba 79 7c 3c 44 f0 34 bb
       0.012446015 0.043033592 0.015409881 -0.002760903
000060 44 ef f3 3b 71 d7 44 bd 15 0f be bb 2b 3a 60 3c
       0.007444294 -0.048057023 -0.0058001378 0.013685743
000070 a2 48 db 3b b8 a5 af 3c ff d8 05 3d c8 50 e9 3c
       0.006692008 0.021441326 0.032677647 0.028480902
